…
I0208 04:47:28.448182 178710 net.cpp:322] The NetState phase (0) differed from the phase (1) specified by a rule in layer loss3/top-5
I0208 04:47:28.449126 178710 net.cpp:58] Initializing net from parameters: 
name: "GoogleNet"
state {
  phase: TRAIN
}
layer {
  name: "data"
  type: "Data"
  top: "data"
  top: "label"
  include {
    phase: TRAIN
  }
  transform_param {
    mirror: true
    crop_size: 224
    mean_value: 104
    mean_value: 117
    mean_value: 123
  }
  data_param {
    source: "/scratch/avenkat/imagenet/ilsvrc12_train_lmdb"
    batch_size: 128
    backend: LMDB
  }
}
layer {
  name: "conv1/7x7_s2"
  type: "Convolution"
  bottom: "data"
  top: "conv1/7x7_s2"
  param {
    lr_mult: 1
    decay_mult: 1
  }
  param {
    lr_mult: 2
    decay_mult: 0
  }
  convolution_param {
    num_output: 64
    pad: 3
    kernel_size: 7
    stride: 2
    weight_filler {
      type: "xavier"
    }
    bias_filler {
      type: "constant"
      value: 0.2
    }
  }
}
layer {
  name: "conv1/relu_7x7"
  type: "ReLU"
  bottom: "conv1/7x7_s2"
  top: "conv1/7x7_s2"
}
layer {
  name: "pool1/3x3_s2"
  type: "Pooling"
  bottom: "conv1/7x7_s2"
  top: "pool1/3x3_s2"
  pooling_param {
    pool: MAX
    kernel_size: 3
    stride: 2
  }
}
layer {
  name: "pool1/norm1"
  type: "LRN"
  bottom: "pool1/3x3_s2"
  top: "pool1/norm1"
  lrn_param {
    local_size: 5
    alpha: 0.0001
    beta: 0.75
  }
}
layer {
  name: "conv2/3x3_reduce"
  type: "Convolution"
  bottom: "pool1/norm1"
  top: "conv2/3x3_reduce"
  param {
    lr_mult: 1
    decay_mult: 1
  }
  param {
    lr_mult: 2
    decay_mult: 0
  }
  convolution_param {
    num_output: 64
    kernel_size: 1
    weight_filler {
      type: "xavier"
    }
    bias_filler {
      type: "constant"
      value: 0.2
    }
  }
}
layer {
  name: "conv2/relu_3x3_reduce"
  type: "ReLU"
  bottom: "conv2/3x3_reduce"
  top: "conv2/3x3_reduce"
}
layer {
  name: "conv2/3x3"
  type: "Convolution"
  bottom: "conv2/3x3_reduce"
  top: "conv2/3x3"
  param {
    lr_mult: 1
    decay_mult: 1
  }
  param {
    lr_mult: 2
    decay_mult: 0
  }
  convolution_param {
    num_output: 192
    pad: 1
    kernel_size: 3
    weight_filler {
      type: "xavier"
    }
    bias_filler {
      type: "constant"
      value: 0.2
    }
  }
}
layer {
  name: "conv2/relu_3x3"
  type: "ReLU"
  bottom: "conv2/3x3"
  top: "conv2/3x3"
}
layer {
  name: "conv2/norm2"
  type: "LRN"
  bottom: "conv2/3x3"
  top: "conv2/norm2"
  lrn_param {
    local_size: 5
    alpha: 0.0001
    beta: 0.75
  }
}
layer {
  name: "pool2/3x3_s2"
  type: "Pooling"
  bottom: "conv2/norm2"
  top: "pool2/3x3_s2"
  pooling_param {
    pool: MAX
    kernel_size: 3
    stride: 2
  }
}
layer {
  name: "inception_3a/1x1"
  type: "Convolution"
  bottom: "pool2/3x3_s2"
  top: "inception_3a/1x1"
  param {
    lr_mult: 1
    decay_mult: 1
  }
  param {
    lr_mult: 2
    decay_mult: 0
  }
  convolution_param {
    num_output: 64
    kernel_size: 1
    weight_filler {
      type: "xavier"
    }
    bias_filler {
      type: "constant"
      value: 0.2
    }
  }
}
layer {
  name: "inception_3a/relu_1x1"
  type: "ReLU"
  bottom: "inception_3a/1x1"
  top: "inception_3a/1x1"
}
layer {
  name: "inception_3a/3x3_reduce"
  type: "Convolution"
  bottom: "pool2/3x3_s2"
  top: "inception_3a/3x3_reduce"
  param {
    lr_mult: 1
    decay_mult: 1
  }
  param {
    lr_mult: 2
    decay_mult: 0
  }
  convolution_param {
    num_output: 96
    kernel_size: 1
    weight_filler {
      type: "xavier"
    }
    bias_filler {
      type: "constant"
      value: 0.2
    }
  }
}
layer {
  name: "inception_3a/relu_3x3_reduce"
  type: "ReLU"
  bottom: "inception_3a/3x3_reduce"
  top: "inception_3a/3x3_reduce"
}
layer {
  name: "inception_3a/3x3"
  type: "Convolution"
  bottom: "inception_3a/3x3_reduce"
  top: "inception_3a/3x3"
  param {
    lr_mult: 1
    decay_mult: 1
  }
  param {
    lr_mult: 2
    decay_mult: 0
  }
  convolution_param {
    num_output: 128
    pad: 1
    kernel_size: 3
    weight_filler {
      type: "xavier"
    }
    bias_filler {
      type: "constant"
      value: 0.2
    }
  }
}
layer {
  name: "inception_3a/relu_3x3"
  type: "ReLU"
  bottom: "inception_3a/3x3"
  top: "inception_3a/3x3"
}
layer {
  name: "inception_3a/5x5_reduce"
  type: "Convolution"
  bottom: "pool2/3x3_s2"
  top: "inception_3a/5x5_reduce"
  param {
    lr_mult: 1
    decay_mult: 1
  }
  param {
    lr_mult: 2
    decay_mult: 0
  }
  convolution_param {
    num_output: 16
    kernel_size: 1
    weight_filler {
      type: "xavier"
    }
    bias_filler {
      type: "constant"
      value: 0.2
    }
  }
}
layer {
  name: "inception_3a/relu_5x5_reduce"
  type: "ReLU"
  bottom: "inception_3a/5x5_reduce"
  top: "inception_3a/5x5_reduce"
}
layer {
  name: "inception_3a/5x5"
  type: "Convolution"
  bottom: "inception_3a/5x5_reduce"
  top: "inception_3a/5x5"
  param {
    lr_mult: 1
    decay_mult: 1
  }
  param {
    lr_mult: 2
    decay_mult: 0
  }
  convolution_param {
    num_output: 32
    pad: 2
    kernel_size: 5
    weight_filler {
      type: "xavier"
    }
    bias_filler {
      type: "constant"
      value: 0.2
    }
  }
}
layer {
  name: "inception_3a/relu_5x5"
  type: "ReLU"
  bottom: "inception_3a/5x5"
  top: "inception_3a/5x5"
}
layer {
  name: "inception_3a/pool"
  type: "Pooling"
  bottom: "pool2/3x3_s2"
  top: "inception_3a/pool"
  pooling_param {
    pool: MAX
    kernel_size: 3
    stride: 1
    pad: 1
  }
}
layer {
  name: "inception_3a/pool_proj"
  type: "Convolution"
  bottom: "inception_3a/pool"
  top: "inception_3a/pool_proj"
  param {
    lr_mult: 1
    decay_mult: 1
  }
  param {
    lr_mult: 2
    decay_mult: 0
  }
  convolution_param {
    num_output: 32
    kernel_size: 1
    weight_filler {
      type: "xavier"
    }
    bias_filler {
      type: "constant"
      value: 0.2
    }
  }
}
layer {
  name: "inception_3a/relu_pool_proj"
  type: "ReLU"
  bottom: "inception_3a/pool_proj"
  top: "inception_3a/pool_proj"
}
layer {
  name: "inception_3a/output"
  type: "Concat"
  bottom: "inception_3a/1x1"
  bottom: "inception_3a/3x3"
  bottom: "inception_3a/5x5"
  bottom: "inception_3a/pool_proj"
  top: "inception_3a/output"
}
layer {
  name: "inception_3b/1x1"
  type: "Convolution"
  bottom: "inception_3a/output"
  top: "inception_3b/1x1"
  param {
    lr_mult: 1
    decay_mult: 1
  }
  param {
    lr_mult: 2
    decay_mult: 0
  }
  convolution_param {
    num_output: 128
    kernel_size: 1
    weight_filler {
      type: "xavier"
    }
    bias_filler {
      type: "constant"
      value: 0.2
    }
  }
}
layer {
  name: "inception_3b/relu_1x1"
  type: "ReLU"
  bottom: "inception_3b/1x1"
  top: "inception_3b/1x1"
}
layer {
  name: "inception_3b/3x3_reduce"
  type: "Convolution"
  bottom: "inception_3a/output"
  top: "inception_3b/3x3_reduce"
  param {
    lr_mult: 1
    decay_mult: 1
  }
  param {
    lr_mult: 2
    decay_mult: 0
  }
  convolution_param {
    num_output: 128
    kernel_size: 1
    weight_filler {
      type: "xavier"
    }
    bias_filler {
      type: "constant"
      value: 0.2
    }
  }
}
layer {
  name: "inception_3b/relu_3x3_reduce"
  type: "ReLU"
  bottom: "inception_3b/3x3_reduce"
  top: "inception_3b/3x3_reduce"
}
layer {
  name: "inception_3b/3x3"
  type: "Convolution"
  bottom: "inception_3b/3x3_reduce"
  top: "inception_3b/3x3"
  param {
    lr_mult: 1
    decay_mult: 1
  }
  param {
    lr_mult: 2
    decay_mult: 0
  }
  convolution_param {
    num_output: 192
    pad: 1
    kernel_size: 3
    weight_filler {
      type: "xavier"
    }
    bias_filler {
      type: "constant"
      value: 0.2
    }
  }
}
layer {
  name: "inception_3b/relu_3x3"
  type: "ReLU"
  bottom: "inception_3b/3x3"
  top: "inception_3b/3x3"
}
layer {
  name: "inception_3b/5x5_reduce"
  type: "Convolution"
  bottom: "inception_3a/output"
  top: "inception_3b/5x5_reduce"
  param {
    lr_mult: 1
    decay_mult: 1
  }
  param {
    lr_mult: 2
    decay_mult: 0
  }
  convolution_param {
    num_output: 32
    kernel_size: 1
    weight_filler {
      type: "xavier"
    }
    bias_filler {
      type: "constant"
      value: 0.2
    }
  }
}
layer {
  name: "inception_3b/relu_5x5_reduce"
  type: "ReLU"
  bottom: "inception_3b/5x5_reduce"
  top: "inception_3b/5x5_reduce"
}
layer {
  name: "inception_3b/5x5"
  type: "Convolution"
  bottom: "inception_3b/5x5_reduce"
  top: "inception_3b/5x5"
  param {
    lr_mult: 1
    decay_mult: 1
  }
  param {
    lr_mult: 2
    decay_mult: 0
  }
  convolution_param {
    num_output: 96
    pad: 2
    kernel_size: 5
    weight_filler {
      type: "xavier"
    }
    bias_filler {
      type: "constant"
      value: 0.2
    }
  }
}
layer {
  name: "inception_3b/relu_5x5"
  type: "ReLU"
  bottom: "inception_3b/5x5"
  top: "inception_3b/5x5"
}
layer {
  name: "inception_3b/pool"
  type: "Pooling"
  bottom: "inception_3a/output"
  top: "inception_3b/pool"
  pooling_param {
    pool: MAX
    kernel_size: 3
    stride: 1
    pad: 1
  }
}
layer {
  name: "inception_3b/pool_proj"
  type: "Convolution"
  bottom: "inception_3b/pool"
  top: "inception_3b/pool_proj"
  param {
    lr_mult: 1
    decay_mult: 1
  }
  param {
    lr_mult: 2
    decay_mult: 0
  }
  convolution_param {
    num_output: 64
    kernel_size: 1
    weight_filler {
      type: "xavier"
    }
    bias_filler {
      type: "constant"
      value: 0.2
    }
  }
}
layer {
  name: "inception_3b/relu_pool_proj"
  type: "ReLU"
  bottom: "inception_3b/pool_proj"
  top: "inception_3b/pool_proj"
}
layer {
  name: "inception_3b/output"
  type: "Concat"
  bottom: "inception_3b/1x1"
  bottom: "inception_3b/3x3"
  bottom: "inception_3b/5x5"
  bottom: "inception_3b/pool_proj"
  top: "inception_3b/output"
}
layer {
  name: "pool3/3x3_s2"
  type: "Pooling"
  bottom: "inception_3b/output"
  top: "pool3/3x3_s2"
  pooling_param {
    pool: MAX
    kernel_size: 3
    stride: 2
  }
}
layer {
  name: "inception_4a/1x1"
  type: "Convolution"
  bottom: "pool3/3x3_s2"
  top: "inception_4a/1x1"
  param {
    lr_mult: 1
    decay_mult: 1
  }
  param {
    lr_mult: 2
    decay_mult: 0
  }
  convolution_param {
    num_output: 192
    kernel_size: 1
    weight_filler {
      type: "xavier"
    }
    bias_filler {
      type: "constant"
      value: 0.2
    }
  }
}
layer {
  name: "inception_4a/relu_1x1"
  type: "ReLU"
  bottom: "inception_4a/1x1"
  top: "inception_4a/1x1"
}
layer {
  name: "inception_4a/3x3_reduce"
  type: "Convolution"
  bottom: "pool3/3x3_s2"
  top: "inception_4a/3x3_reduce"
  param {
    lr_mult: 1
    decay_mult: 1
  }
  param {
    lr_mult: 2
    decay_mult: 0
  }
  convolution_param {
    num_output: 96
    kernel_size: 1
    weight_filler {
      type: "xavier"
    }
    bias_filler {
      type: "constant"
      value: 0.2
    }
  }
}
layer {
  name: "inception_4a/relu_3x3_reduce"
  type: "ReLU"
  bottom: "inception_4a/3x3_reduce"
  top: "inception_4a/3x3_reduce"
}
layer {
  name: "inception_4a/3x3"
  type: "Convolution"
  bottom: "inception_4a/3x3_reduce"
  top: "inception_4a/3x3"
  param {
    lr_mult: 1
    decay_mult: 1
  }
  param {
    lr_mult: 2
    decay_mult: 0
  }
  convolution_param {
    num_output: 208
    pad: 1
    kernel_size: 3
    weight_filler {
      type: "xavier"
    }
    bias_filler {
      type: "constant"
      value: 0.2
    }
  }
}
layer {
  name: "inception_4a/relu_3x3"
  type: "ReLU"
  bottom: "inception_4a/3x3"
  top: "inception_4a/3x3"
}
layer {
  name: "inception_4a/5x5_reduce"
  type: "Convolution"
  bottom: "pool3/3x3_s2"
  top: "inception_4a/5x5_reduce"
  param {
    lr_mult: 1
    decay_mult: 1
  }
  param {
    lr_mult: 2
    decay_mult: 0
  }
  convolution_param {
    num_output: 16
    kernel_size: 1
    weight_filler {
      type: "xavier"
    }
    bias_filler {
      type: "constant"
      value: 0.2
    }
  }
}
layer {
  name: "inception_4a/relu_5x5_reduce"
  type: "ReLU"
  bottom: "inception_4a/5x5_reduce"
  top: "inception_4a/5x5_reduce"
}
layer {
  name: "inception_4a/5x5"
  type: "Convolution"
  bottom: "inception_4a/5x5_reduce"
  top: "inception_4a/5x5"
  param {
    lr_mult: 1
    decay_mult: 1
  }
  param {
    lr_mult: 2
    decay_mult: 0
  }
  convolution_param {
    num_output: 48
    pad: 2
    kernel_size: 5
    weight_filler {
      type: "xavier"
    }
    bias_filler {
      type: "constant"
      value: 0.2
    }
  }
}
layer {
  name: "inception_4a/relu_5x5"
  type: "ReLU"
  bottom: "inception_4a/5x5"
  top: "inception_4a/5x5"
}
layer {
  name: "inception_4a/pool"
  type: "Pooling"
  bottom: "pool3/3x3_s2"
  top: "inception_4a/pool"
  pooling_param {
    pool: MAX
    kernel_size: 3
    stride: 1
    pad: 1
  }
}
layer {
  name: "inception_4a/pool_proj"
  type: "Convolution"
  bottom: "inception_4a/pool"
  top: "inception_4a/pool_proj"
  param {
    lr_mult: 1
    decay_mult: 1
  }
  param {
    lr_mult: 2
    decay_mult: 0
  }
  convolution_param {
    num_output: 64
    kernel_size: 1
    weight_filler {
      type: "xavier"
    }
    bias_filler {
      type: "constant"
      value: 0.2
    }
  }
}
layer {
  name: "inception_4a/relu_pool_proj"
  type: "ReLU"
  bottom: "inception_4a/pool_proj"
  top: "inception_4a/pool_proj"
}
layer {
  name: "inception_4a/output"
  type: "Concat"
  bottom: "inception_4a/1x1"
  bottom: "inception_4a/3x3"
  bottom: "inception_4a/5x5"
  bottom: "inception_4a/pool_proj"
  top: "inception_4a/output"
}
layer {
  name: "loss1/ave_pool"
  type: "Pooling"
  bottom: "inception_4a/output"
  top: "loss1/ave_pool"
  pooling_param {
    pool: AVE
    kernel_size: 5
    stride: 3
  }
}
layer {
  name: "loss1/conv"
  type: "Convolution"
  bottom: "loss1/ave_pool"
  top: "loss1/conv"
  param {
    lr_mult: 1
    decay_mult: 1
  }
  param {
    lr_mult: 2
    decay_mult: 0
  }
  convolution_param {
    num_output: 128
    kernel_size: 1
    weight_filler {
      type: "xavier"
    }
    bias_filler {
      type: "constant"
      value: 0.2
    }
  }
}
layer {
  name: "loss1/relu_conv"
  type: "ReLU"
  bottom: "loss1/conv"
  top: "loss1/conv"
}
layer {
  name: "loss1/fc"
  type: "InnerProduct"
  bottom: "loss1/conv"
  top: "loss1/fc"
  param {
    lr_mult: 1
    decay_mult: 1
  }
  param {
    lr_mult: 2
    decay_mult: 0
  }
  inner_product_param {
    num_output: 1024
    weight_filler {
      type: "xavier"
    }
    bias_filler {
      type: "constant"
      value: 0.2
    }
  }
}
layer {
  name: "loss1/relu_fc"
  type: "ReLU"
  bottom: "loss1/fc"
  top: "loss1/fc"
}
layer {
  name: "loss1/classifier"
  type: "InnerProduct"
  bottom: "loss1/fc"
  top: "loss1/classifier"
  param {
    lr_mult: 1
    decay_mult: 1
  }
  param {
    lr_mult: 2
    decay_mult: 0
  }
  inner_product_param {
    num_output: 1000
    weight_filler {
      type: "xavier"
    }
    bias_filler {
      type: "constant"
      value: 0
    }
  }
}
layer {
  name: "loss1/loss"
  type: "SoftmaxWithLoss"
  bottom: "loss1/classifier"
  bottom: "label"
  top: "loss1/loss1"
  loss_weight: 0.3
}
layer {
  name: "inception_4b/1x1"
  type: "Convolution"
  bottom: "inception_4a/output"
  top: "inception_4b/1x1"
  param {
    lr_mult: 1
    decay_mult: 1
  }
  param {
    lr_mult: 2
    decay_mult: 0
  }
  convolution_param {
    num_output: 160
    kernel_size: 1
    weight_filler {
      type: "xavier"
    }
    bias_filler {
      type: "constant"
      value: 0.2
    }
  }
}
layer {
  name: "inception_4b/relu_1x1"
  type: "ReLU"
  bottom: "inception_4b/1x1"
  top: "inception_4b/1x1"
}
layer {
  name: "inception_4b/3x3_reduce"
  type: "Convolution"
  bottom: "inception_4a/output"
  top: "inception_4b/3x3_reduce"
  param {
    lr_mult: 1
    decay_mult: 1
  }
  param {
    lr_mult: 2
    decay_mult: 0
  }
  convolution_param {
    num_output: 112
    kernel_size: 1
    weight_filler {
      type: "xavier"
    }
    bias_filler {
      type: "constant"
      value: 0.2
    }
  }
}
layer {
  name: "inception_4b/relu_3x3_reduce"
  type: "ReLU"
  bottom: "inception_4b/3x3_reduce"
  top: "inception_4b/3x3_reduce"
}
layer {
  name: "inception_4b/3x3"
  type: "Convolution"
  bottom: "inception_4b/3x3_reduce"
  top: "inception_4b/3x3"
  param {
    lr_mult: 1
    decay_mult: 1
  }
  param {
    lr_mult: 2
    decay_mult: 0
  }
  convolution_param {
    num_output: 224
    pad: 1
    kernel_size: 3
    weight_filler {
      type: "xavier"
    }
    bias_filler {
      type: "constant"
      value: 0.2
    }
  }
}
layer {
  name: "inception_4b/relu_3x3"
  type: "ReLU"
  bottom: "inception_4b/3x3"
  top: "inception_4b/3x3"
}
layer {
  name: "inception_4b/5x5_reduce"
  type: "Convolution"
  bottom: "inception_4a/output"
  top: "inception_4b/5x5_reduce"
  param {
    lr_mult: 1
    decay_mult: 1
  }
  param {
    lr_mult: 2
    decay_mult: 0
  }
  convolution_param {
    num_output: 24
    kernel_size: 1
    weight_filler {
      type: "xavier"
    }
    bias_filler {
      type: "constant"
      value: 0.2
    }
  }
}
layer {
  name: "inception_4b/relu_5x5_reduce"
  type: "ReLU"
  bottom: "inception_4b/5x5_reduce"
  top: "inception_4b/5x5_reduce"
}
layer {
  name: "inception_4b/5x5"
  type: "Convolution"
  bottom: "inception_4b/5x5_reduce"
  top: "inception_4b/5x5"
  param {
    lr_mult: 1
    decay_mult: 1
  }
  param {
    lr_mult: 2
    decay_mult: 0
  }
  convolution_param {
    num_output: 64
    pad: 2
    kernel_size: 5
    weight_filler {
      type: "xavier"
    }
    bias_filler {
      type: "constant"
      value: 0.2
    }
  }
}
layer {
  name: "inception_4b/relu_5x5"
  type: "ReLU"
  bottom: "inception_4b/5x5"
  top: "inception_4b/5x5"
}
layer {
  name: "inception_4b/pool"
  type: "Pooling"
  bottom: "inception_4a/output"
  top: "inception_4b/pool"
  pooling_param {
    pool: MAX
    kernel_size: 3
    stride: 1
    pad: 1
  }
}
layer {
  name: "inception_4b/pool_proj"
  type: "Convolution"
  bottom: "inception_4b/pool"
  top: "inception_4b/pool_proj"
  param {
    lr_mult: 1
    decay_mult: 1
  }
  param {
    lr_mult: 2
    decay_mult: 0
  }
  convolution_param {
    num_output: 64
    kernel_size: 1
    weight_filler {
      type: "xavier"
    }
    bias_filler {
      type: "constant"
      value: 0.2
    }
  }
}
layer {
  name: "inception_4b/relu_pool_proj"
  type: "ReLU"
  bottom: "inception_4b/pool_proj"
  top: "inception_4b/pool_proj"
}
layer {
  name: "inception_4b/output"
  type: "Concat"
  bottom: "inception_4b/1x1"
  bottom: "inception_4b/3x3"
  bottom: "inception_4b/5x5"
  bottom: "inception_4b/pool_proj"
  top: "inception_4b/output"
}
layer {
  name: "inception_4c/1x1"
  type: "Convolution"
  bottom: "inception_4b/output"
  top: "inception_4c/1x1"
  param {
    lr_mult: 1
    decay_mult: 1
  }
  param {
    lr_mult: 2
    decay_mult: 0
  }
  convolution_param {
    num_output: 128
    kernel_size: 1
    weight_filler {
      type: "xavier"
    }
    bias_filler {
      type: "constant"
      value: 0.2
    }
  }
}
layer {
  name: "inception_4c/relu_1x1"
  type: "ReLU"
  bottom: "inception_4c/1x1"
  top: "inception_4c/1x1"
}
layer {
  name: "inception_4c/3x3_reduce"
  type: "Convolution"
  bottom: "inception_4b/output"
  top: "inception_4c/3x3_reduce"
  param {
    lr_mult: 1
    decay_mult: 1
  }
  param {
    lr_mult: 2
    decay_mult: 0
  }
  convolution_param {
    num_output: 128
    kernel_size: 1
    weight_filler {
      type: "xavier"
    }
    bias_filler {
      type: "constant"
      value: 0.2
    }
  }
}
layer {
  name: "inception_4c/relu_3x3_reduce"
  type: "ReLU"
  bottom: "inception_4c/3x3_reduce"
  top: "inception_4c/3x3_reduce"
}
layer {
  name: "inception_4c/3x3"
  type: "Convolution"
  bottom: "inception_4c/3x3_reduce"
  top: "inception_4c/3x3"
  param {
    lr_mult: 1
    decay_mult: 1
  }
  param {
    lr_mult: 2
    decay_mult: 0
  }
  convolution_param {
    num_output: 256
    pad: 1
    kernel_size: 3
    weight_filler {
      type: "xavier"
    }
    bias_filler {
      type: "constant"
      value: 0.2
    }
  }
}
layer {
  name: "inception_4c/relu_3x3"
  type: "ReLU"
  bottom: "inception_4c/3x3"
  top: "inception_4c/3x3"
}
layer {
  name: "inception_4c/5x5_reduce"
  type: "Convolution"
  bottom: "inception_4b/output"
  top: "inception_4c/5x5_reduce"
  param {
    lr_mult: 1
    decay_mult: 1
  }
  param {
    lr_mult: 2
    decay_mult: 0
  }
  convolution_param {
    num_output: 24
    kernel_size: 1
    weight_filler {
      type: "xavier"
    }
    bias_filler {
      type: "constant"
      value: 0.2
    }
  }
}
layer {
  name: "inception_4c/relu_5x5_reduce"
  type: "ReLU"
  bottom: "inception_4c/5x5_reduce"
  top: "inception_4c/5x5_reduce"
}
layer {
  name: "inception_4c/5x5"
  type: "Convolution"
  bottom: "inception_4c/5x5_reduce"
  top: "inception_4c/5x5"
  param {
    lr_mult: 1
    decay_mult: 1
  }
  param {
    lr_mult: 2
    decay_mult: 0
  }
  convolution_param {
    num_output: 64
    pad: 2
    kernel_size: 5
    weight_filler {
      type: "xavier"
    }
    bias_filler {
      type: "constant"
      value: 0.2
    }
  }
}
layer {
  name: "inception_4c/relu_5x5"
  type: "ReLU"
  bottom: "inception_4c/5x5"
  top: "inception_4c/5x5"
}
layer {
  name: "inception_4c/pool"
  type: "Pooling"
  bottom: "inception_4b/output"
  top: "inception_4c/pool"
  pooling_param {
    pool: MAX
    kernel_size: 3
    stride: 1
    pad: 1
  }
}
layer {
  name: "inception_4c/pool_proj"
  type: "Convolution"
  bottom: "inception_4c/pool"
  top: "inception_4c/pool_proj"
  param {
    lr_mult: 1
    decay_mult: 1
  }
  param {
    lr_mult: 2
    decay_mult: 0
  }
  convolution_param {
    num_output: 64
    kernel_size: 1
    weight_filler {
      type: "xavier"
    }
    bias_filler {
      type: "constant"
      value: 0.2
    }
  }
}
layer {
  name: "inception_4c/relu_pool_proj"
  type: "ReLU"
  bottom: "inception_4c/pool_proj"
  top: "inception_4c/pool_proj"
}
layer {
  name: "inception_4c/output"
  type: "Concat"
  bottom: "inception_4c/1x1"
  bottom: "inception_4c/3x3"
  bottom: "inception_4c/5x5"
  bottom: "inception_4c/pool_proj"
  top: "inception_4c/output"
}
layer {
  name: "inception_4d/1x1"
  type: "Convolution"
  bottom: "inception_4c/output"
  top: "inception_4d/1x1"
  param {
    lr_mult: 1
    decay_mult: 1
  }
  param {
    lr_mult: 2
    decay_mult: 0
  }
  convolution_param {
    num_output: 112
    kernel_size: 1
    weight_filler {
      type: "xavier"
    }
    bias_filler {
      type: "constant"
      value: 0.2
    }
  }
}
layer {
  name: "inception_4d/relu_1x1"
  type: "ReLU"
  bottom: "inception_4d/1x1"
  top: "inception_4d/1x1"
}
layer {
  name: "inception_4d/3x3_reduce"
  type: "Convolution"
  bottom: "inception_4c/output"
  top: "inception_4d/3x3_reduce"
  param {
    lr_mult: 1
    decay_mult: 1
  }
  param {
    lr_mult: 2
    decay_mult: 0
  }
  convolution_param {
    num_output: 144
    kernel_size: 1
    weight_filler {
      type: "xavier"
    }
    bias_filler {
      type: "constant"
      value: 0.2
    }
  }
}
layer {
  name: "inception_4d/relu_3x3_reduce"
  type: "ReLU"
  bottom: "inception_4d/3x3_reduce"
  top: "inception_4d/3x3_reduce"
}
layer {
  name: "inception_4d/3x3"
  type: "Convolution"
  bottom: "inception_4d/3x3_reduce"
  top: "inception_4d/3x3"
  param {
    lr_mult: 1
    decay_mult: 1
  }
  param {
    lr_mult: 2
    decay_mult: 0
  }
  convolution_param {
    num_output: 288
    pad: 1
    kernel_size: 3
    weight_filler {
      type: "xavier"
    }
    bias_filler {
      type: "constant"
      value: 0.2
    }
  }
}
layer {
  name: "inception_4d/relu_3x3"
  type: "ReLU"
  bottom: "inception_4d/3x3"
  top: "inception_4d/3x3"
}
layer {
  name: "inception_4d/5x5_reduce"
  type: "Convolution"
  bottom: "inception_4c/output"
  top: "inception_4d/5x5_reduce"
  param {
    lr_mult: 1
    decay_mult: 1
  }
  param {
    lr_mult: 2
    decay_mult: 0
  }
  convolution_param {
    num_output: 32
    kernel_size: 1
    weight_filler {
      type: "xavier"
    }
    bias_filler {
      type: "constant"
      value: 0.2
    }
  }
}
layer {
  name: "inception_4d/relu_5x5_reduce"
  type: "ReLU"
  bottom: "inception_4d/5x5_reduce"
  top: "inception_4d/5x5_reduce"
}
layer {
  name: "inception_4d/5x5"
  type: "Convolution"
  bottom: "inception_4d/5x5_reduce"
  top: "inception_4d/5x5"
  param {
    lr_mult: 1
    decay_mult: 1
  }
  param {
    lr_mult: 2
    decay_mult: 0
  }
  convolution_param {
    num_output: 64
    pad: 2
    kernel_size: 5
    weight_filler {
      type: "xavier"
    }
    bias_filler {
      type: "constant"
      value: 0.2
    }
  }
}
layer {
  name: "inception_4d/relu_5x5"
  type: "ReLU"
  bottom: "inception_4d/5x5"
  top: "inception_4d/5x5"
}
layer {
  name: "inception_4d/pool"
  type: "Pooling"
  bottom: "inception_4c/output"
  top: "inception_4d/pool"
  pooling_param {
    pool: MAX
    kernel_size: 3
    stride: 1
    pad: 1
  }
}
layer {
  name: "inception_4d/pool_proj"
  type: "Convolution"
  bottom: "inception_4d/pool"
  top: "inception_4d/pool_proj"
  param {
    lr_mult: 1
    decay_mult: 1
  }
  param {
    lr_mult: 2
    decay_mult: 0
  }
  convolution_param {
    num_output: 64
    kernel_size: 1
    weight_filler {
      type: "xavier"
    }
    bias_filler {
      type: "constant"
      value: 0.2
    }
  }
}
layer {
  name: "inception_4d/relu_pool_proj"
  type: "ReLU"
  bottom: "inception_4d/pool_proj"
  top: "inception_4d/pool_proj"
}
layer {
  name: "inception_4d/output"
  type: "Concat"
  bottom: "inception_4d/1x1"
  bottom: "inception_4d/3x3"
  bottom: "inception_4d/5x5"
  bottom: "inception_4d/pool_proj"
  top: "inception_4d/output"
}
layer {
  name: "loss2/ave_pool"
  type: "Pooling"
  bottom: "inception_4d/output"
  top: "loss2/ave_pool"
  pooling_param {
    pool: AVE
    kernel_size: 5
    stride: 3
  }
}
layer {
  name: "loss2/conv"
  type: "Convolution"
  bottom: "loss2/ave_pool"
  top: "loss2/conv"
  param {
    lr_mult: 1
    decay_mult: 1
  }
  param {
    lr_mult: 2
    decay_mult: 0
  }
  convolution_param {
    num_output: 128
    kernel_size: 1
    weight_filler {
      type: "xavier"
    }
    bias_filler {
      type: "constant"
      value: 0.2
    }
  }
}
layer {
  name: "loss2/relu_conv"
  type: "ReLU"
  bottom: "loss2/conv"
  top: "loss2/conv"
}
layer {
  name: "loss2/fc"
  type: "InnerProduct"
  bottom: "loss2/conv"
  top: "loss2/fc"
  param {
    lr_mult: 1
    decay_mult: 1
  }
  param {
    lr_mult: 2
    decay_mult: 0
  }
  inner_product_param {
    num_output: 1024
    weight_filler {
      type: "xavier"
    }
    bias_filler {
      type: "constant"
      value: 0.2
    }
  }
}
layer {
  name: "loss2/relu_fc"
  type: "ReLU"
  bottom: "loss2/fc"
  top: "loss2/fc"
}
layer {
  name: "loss2/classifier"
  type: "InnerProduct"
  bottom: "loss2/fc"
  top: "loss2/classifier"
  param {
    lr_mult: 1
    decay_mult: 1
  }
  param {
    lr_mult: 2
    decay_mult: 0
  }
  inner_product_param {
    num_output: 1000
    weight_filler {
      type: "xavier"
    }
    bias_filler {
      type: "constant"
      value: 0
    }
  }
}
layer {
  name: "loss2/loss"
  type: "SoftmaxWithLoss"
  bottom: "loss2/classifier"
  bottom: "label"
  top: "loss2/loss1"
  loss_weight: 0.3
}
layer {
  name: "inception_4e/1x1"
  type: "Convolution"
  bottom: "inception_4d/output"
  top: "inception_4e/1x1"
  param {
    lr_mult: 1
    decay_mult: 1
  }
  param {
    lr_mult: 2
    decay_mult: 0
  }
  convolution_param {
    num_output: 256
    kernel_size: 1
    weight_filler {
      type: "xavier"
    }
    bias_filler {
      type: "constant"
      value: 0.2
    }
  }
}
layer {
  name: "inception_4e/relu_1x1"
  type: "ReLU"
  bottom: "inception_4e/1x1"
  top: "inception_4e/1x1"
}
layer {
  name: "inception_4e/3x3_reduce"
  type: "Convolution"
  bottom: "inception_4d/output"
  top: "inception_4e/3x3_reduce"
  param {
    lr_mult: 1
    decay_mult: 1
  }
  param {
    lr_mult: 2
    decay_mult: 0
  }
  convolution_param {
    num_output: 160
    kernel_size: 1
    weight_filler {
      type: "xavier"
    }
    bias_filler {
      type: "constant"
      value: 0.2
    }
  }
}
layer {
  name: "inception_4e/relu_3x3_reduce"
  type: "ReLU"
  bottom: "inception_4e/3x3_reduce"
  top: "inception_4e/3x3_reduce"
}
layer {
  name: "inception_4e/3x3"
  type: "Convolution"
  bottom: "inception_4e/3x3_reduce"
  top: "inception_4e/3x3"
  param {
    lr_mult: 1
    decay_mult: 1
  }
  param {
    lr_mult: 2
    decay_mult: 0
  }
  convolution_param {
    num_output: 320
    pad: 1
    kernel_size: 3
    weight_filler {
      type: "xavier"
    }
    bias_filler {
      type: "constant"
      value: 0.2
    }
  }
}
layer {
  name: "inception_4e/relu_3x3"
  type: "ReLU"
  bottom: "inception_4e/3x3"
  top: "inception_4e/3x3"
}
layer {
  name: "inception_4e/5x5_reduce"
  type: "Convolution"
  bottom: "inception_4d/output"
  top: "inception_4e/5x5_reduce"
  param {
    lr_mult: 1
    decay_mult: 1
  }
  param {
    lr_mult: 2
    decay_mult: 0
  }
  convolution_param {
    num_output: 32
    kernel_size: 1
    weight_filler {
      type: "xavier"
    }
    bias_filler {
      type: "constant"
      value: 0.2
    }
  }
}
layer {
  name: "inception_4e/relu_5x5_reduce"
  type: "ReLU"
  bottom: "inception_4e/5x5_reduce"
  top: "inception_4e/5x5_reduce"
}
layer {
  name: "inception_4e/5x5"
  type: "Convolution"
  bottom: "inception_4e/5x5_reduce"
  top: "inception_4e/5x5"
  param {
    lr_mult: 1
    decay_mult: 1
  }
  param {
    lr_mult: 2
    decay_mult: 0
  }
  convolution_param {
    num_output: 128
    pad: 2
    kernel_size: 5
    weight_filler {
      type: "xavier"
    }
    bias_filler {
      type: "constant"
      value: 0.2
    }
  }
}
layer {
  name: "inception_4e/relu_5x5"
  type: "ReLU"
  bottom: "inception_4e/5x5"
  top: "inception_4e/5x5"
}
layer {
  name: "inception_4e/pool"
  type: "Pooling"
  bottom: "inception_4d/output"
  top: "inception_4e/pool"
  pooling_param {
    pool: MAX
    kernel_size: 3
    stride: 1
    pad: 1
  }
}
layer {
  name: "inception_4e/pool_proj"
  type: "Convolution"
  bottom: "inception_4e/pool"
  top: "inception_4e/pool_proj"
  param {
    lr_mult: 1
    decay_mult: 1
  }
  param {
    lr_mult: 2
    decay_mult: 0
  }
  convolution_param {
    
I0208 04:47:28.450167 178710 layer_factory.hpp:77] Creating layer data
I0208 04:47:28.450875 178710 net.cpp:100] Creating Layer data
I0208 04:47:28.450883 178710 net.cpp:408] data -> data
I0208 04:47:28.450917 178710 net.cpp:408] data -> label
I0208 04:47:28.461102 178912 db_lmdb.cpp:35] Opened lmdb /scratch/avenkat/imagenet/ilsvrc12_train_lmdb
I0208 04:47:28.474611 178710 data_layer.cpp:41] output data size: 128,3,224,224
I0208 04:47:28.552320 178710 net.cpp:150] Setting up data
I0208 04:47:28.552367 178710 net.cpp:157] Top shape: 128 3 224 224 (19267584)
I0208 04:47:28.552374 178710 net.cpp:157] Top shape: 128 (128)
I0208 04:47:28.552377 178710 net.cpp:165] Memory required for data: 77070848
I0208 04:47:28.552382 178710 layer_factory.hpp:77] Creating layer label_data_1_split
I0208 04:47:28.552434 178710 net.cpp:100] Creating Layer label_data_1_split
I0208 04:47:28.552439 178710 net.cpp:434] label_data_1_split <- label
I0208 04:47:28.552464 178710 net.cpp:408] label_data_1_split -> label_data_1_split_0
I0208 04:47:28.552472 178710 net.cpp:408] label_data_1_split -> label_data_1_split_1
I0208 04:47:28.552479 178710 net.cpp:408] label_data_1_split -> label_data_1_split_2
I0208 04:47:28.552495 178710 net.cpp:150] Setting up label_data_1_split
I0208 04:47:28.552532 178710 net.cpp:157] Top shape: 128 (128)
I0208 04:47:28.552536 178710 net.cpp:157] Top shape: 128 (128)
I0208 04:47:28.552539 178710 net.cpp:157] Top shape: 128 (128)
I0208 04:47:28.552541 178710 net.cpp:165] Memory required for data: 77072384
I0208 04:47:28.552543 178710 layer_factory.hpp:77] Creating layer conv1/7x7_s2
I0208 04:47:28.552564 178710 net.cpp:100] Creating Layer conv1/7x7_s2
I0208 04:47:28.552568 178710 net.cpp:434] conv1/7x7_s2 <- data
I0208 04:47:28.552574 178710 net.cpp:408] conv1/7x7_s2 -> conv1/7x7_s2
I0208 04:47:28.552702 178710 net.cpp:150] Setting up conv1/7x7_s2
I0208 04:47:28.552707 178710 net.cpp:157] Top shape: 128 64 112 112 (102760448)
I0208 04:47:28.552711 178710 net.cpp:165] Memory required for data: 488114176
I0208 04:47:28.552721 178710 layer_factory.hpp:77] Creating layer conv1/relu_7x7
I0208 04:47:28.552727 178710 net.cpp:100] Creating Layer conv1/relu_7x7
I0208 04:47:28.552729 178710 net.cpp:434] conv1/relu_7x7 <- conv1/7x7_s2
I0208 04:47:28.552734 178710 net.cpp:395] conv1/relu_7x7 -> conv1/7x7_s2 (in-place)
I0208 04:47:28.552742 178710 net.cpp:150] Setting up conv1/relu_7x7
I0208 04:47:28.552744 178710 net.cpp:157] Top shape: 128 64 112 112 (102760448)
I0208 04:47:28.552747 178710 net.cpp:165] Memory required for data: 899155968
I0208 04:47:28.552748 178710 layer_factory.hpp:77] Creating layer pool1/3x3_s2
I0208 04:47:28.552755 178710 net.cpp:100] Creating Layer pool1/3x3_s2
I0208 04:47:28.552757 178710 net.cpp:434] pool1/3x3_s2 <- conv1/7x7_s2
I0208 04:47:28.552762 178710 net.cpp:408] pool1/3x3_s2 -> pool1/3x3_s2
I0208 04:47:28.552774 178710 net.cpp:150] Setting up pool1/3x3_s2
I0208 04:47:28.552778 178710 net.cpp:157] Top shape: 128 64 56 56 (25690112)
I0208 04:47:28.552780 178710 net.cpp:165] Memory required for data: 1001916416
I0208 04:47:28.552783 178710 layer_factory.hpp:77] Creating layer pool1/norm1
I0208 04:47:28.552789 178710 net.cpp:100] Creating Layer pool1/norm1
I0208 04:47:28.552791 178710 net.cpp:434] pool1/norm1 <- pool1/3x3_s2
I0208 04:47:28.552795 178710 net.cpp:408] pool1/norm1 -> pool1/norm1
I0208 04:47:28.552804 178710 net.cpp:150] Setting up pool1/norm1
I0208 04:47:28.552808 178710 net.cpp:157] Top shape: 128 64 56 56 (25690112)
I0208 04:47:28.552809 178710 net.cpp:165] Memory required for data: 1104676864
I0208 04:47:28.552811 178710 layer_factory.hpp:77] Creating layer conv2/3x3_reduce
I0208 04:47:28.552821 178710 net.cpp:100] Creating Layer conv2/3x3_reduce
I0208 04:47:28.552824 178710 net.cpp:434] conv2/3x3_reduce <- pool1/norm1
I0208 04:47:28.552831 178710 net.cpp:408] conv2/3x3_reduce -> conv2/3x3_reduce
I0208 04:47:28.552896 178710 net.cpp:150] Setting up conv2/3x3_reduce
I0208 04:47:28.552901 178710 net.cpp:157] Top shape: 128 64 56 56 (25690112)
I0208 04:47:28.552902 178710 net.cpp:165] Memory required for data: 1207437312
I0208 04:47:28.552911 178710 layer_factory.hpp:77] Creating layer conv2/relu_3x3_reduce
I0208 04:47:28.552916 178710 net.cpp:100] Creating Layer conv2/relu_3x3_reduce
I0208 04:47:28.552918 178710 net.cpp:434] conv2/relu_3x3_reduce <- conv2/3x3_reduce
I0208 04:47:28.552923 178710 net.cpp:395] conv2/relu_3x3_reduce -> conv2/3x3_reduce (in-place)
I0208 04:47:28.552927 178710 net.cpp:150] Setting up conv2/relu_3x3_reduce
I0208 04:47:28.552930 178710 net.cpp:157] Top shape: 128 64 56 56 (25690112)
I0208 04:47:28.552932 178710 net.cpp:165] Memory required for data: 1310197760
I0208 04:47:28.552934 178710 layer_factory.hpp:77] Creating layer conv2/3x3
I0208 04:47:28.552947 178710 net.cpp:100] Creating Layer conv2/3x3
I0208 04:47:28.552948 178710 net.cpp:434] conv2/3x3 <- conv2/3x3_reduce
I0208 04:47:28.552955 178710 net.cpp:408] conv2/3x3 -> conv2/3x3
I0208 04:47:28.553642 178710 net.cpp:150] Setting up conv2/3x3
I0208 04:47:28.553648 178710 net.cpp:157] Top shape: 128 192 56 56 (77070336)
I0208 04:47:28.553650 178710 net.cpp:165] Memory required for data: 1618479104
I0208 04:47:28.553675 178710 layer_factory.hpp:77] Creating layer conv2/relu_3x3
I0208 04:47:28.553680 178710 net.cpp:100] Creating Layer conv2/relu_3x3
I0208 04:47:28.553683 178710 net.cpp:434] conv2/relu_3x3 <- conv2/3x3
I0208 04:47:28.553688 178710 net.cpp:395] conv2/relu_3x3 -> conv2/3x3 (in-place)
I0208 04:47:28.553691 178710 net.cpp:150] Setting up conv2/relu_3x3
I0208 04:47:28.553696 178710 net.cpp:157] Top shape: 128 192 56 56 (77070336)
I0208 04:47:28.553699 178710 net.cpp:165] Memory required for data: 1926760448
I0208 04:47:28.553700 178710 layer_factory.hpp:77] Creating layer conv2/norm2
I0208 04:47:28.553706 178710 net.cpp:100] Creating Layer conv2/norm2
I0208 04:47:28.553709 178710 net.cpp:434] conv2/norm2 <- conv2/3x3
I0208 04:47:28.553712 178710 net.cpp:408] conv2/norm2 -> conv2/norm2
I0208 04:47:28.553721 178710 net.cpp:150] Setting up conv2/norm2
I0208 04:47:28.553725 178710 net.cpp:157] Top shape: 128 192 56 56 (77070336)
I0208 04:47:28.553726 178710 net.cpp:165] Memory required for data: 2235041792
I0208 04:47:28.553728 178710 layer_factory.hpp:77] Creating layer pool2/3x3_s2
I0208 04:47:28.553735 178710 net.cpp:100] Creating Layer pool2/3x3_s2
I0208 04:47:28.553736 178710 net.cpp:434] pool2/3x3_s2 <- conv2/norm2
I0208 04:47:28.553741 178710 net.cpp:408] pool2/3x3_s2 -> pool2/3x3_s2
I0208 04:47:28.553750 178710 net.cpp:150] Setting up pool2/3x3_s2
I0208 04:47:28.553752 178710 net.cpp:157] Top shape: 128 192 28 28 (19267584)
I0208 04:47:28.553755 178710 net.cpp:165] Memory required for data: 2312112128
I0208 04:47:28.553757 178710 layer_factory.hpp:77] Creating layer pool2/3x3_s2_pool2/3x3_s2_0_split
I0208 04:47:28.553766 178710 net.cpp:100] Creating Layer pool2/3x3_s2_pool2/3x3_s2_0_split
I0208 04:47:28.553767 178710 net.cpp:434] pool2/3x3_s2_pool2/3x3_s2_0_split <- pool2/3x3_s2
I0208 04:47:28.553774 178710 net.cpp:408] pool2/3x3_s2_pool2/3x3_s2_0_split -> pool2/3x3_s2_pool2/3x3_s2_0_split_0
I0208 04:47:28.553779 178710 net.cpp:408] pool2/3x3_s2_pool2/3x3_s2_0_split -> pool2/3x3_s2_pool2/3x3_s2_0_split_1
I0208 04:47:28.553783 178710 net.cpp:408] pool2/3x3_s2_pool2/3x3_s2_0_split -> pool2/3x3_s2_pool2/3x3_s2_0_split_2
I0208 04:47:28.553788 178710 net.cpp:408] pool2/3x3_s2_pool2/3x3_s2_0_split -> pool2/3x3_s2_pool2/3x3_s2_0_split_3
I0208 04:47:28.553797 178710 net.cpp:150] Setting up pool2/3x3_s2_pool2/3x3_s2_0_split
I0208 04:47:28.553800 178710 net.cpp:157] Top shape: 128 192 28 28 (19267584)
I0208 04:47:28.553802 178710 net.cpp:157] Top shape: 128 192 28 28 (19267584)
I0208 04:47:28.553805 178710 net.cpp:157] Top shape: 128 192 28 28 (19267584)
I0208 04:47:28.553808 178710 net.cpp:157] Top shape: 128 192 28 28 (19267584)
I0208 04:47:28.553810 178710 net.cpp:165] Memory required for data: 2620393472
I0208 04:47:28.553812 178710 layer_factory.hpp:77] Creating layer inception_3a/1x1
I0208 04:47:28.553822 178710 net.cpp:100] Creating Layer inception_3a/1x1
I0208 04:47:28.553824 178710 net.cpp:434] inception_3a/1x1 <- pool2/3x3_s2_pool2/3x3_s2_0_split_0
I0208 04:47:28.553830 178710 net.cpp:408] inception_3a/1x1 -> inception_3a/1x1
I0208 04:47:28.553938 178710 net.cpp:150] Setting up inception_3a/1x1
I0208 04:47:28.553944 178710 net.cpp:157] Top shape: 128 64 28 28 (6422528)
I0208 04:47:28.553946 178710 net.cpp:165] Memory required for data: 2646083584
I0208 04:47:28.553951 178710 layer_factory.hpp:77] Creating layer inception_3a/relu_1x1
I0208 04:47:28.553956 178710 net.cpp:100] Creating Layer inception_3a/relu_1x1
I0208 04:47:28.553957 178710 net.cpp:434] inception_3a/relu_1x1 <- inception_3a/1x1
I0208 04:47:28.553963 178710 net.cpp:395] inception_3a/relu_1x1 -> inception_3a/1x1 (in-place)
I0208 04:47:28.553967 178710 net.cpp:150] Setting up inception_3a/relu_1x1
I0208 04:47:28.553972 178710 net.cpp:157] Top shape: 128 64 28 28 (6422528)
I0208 04:47:28.553973 178710 net.cpp:165] Memory required for data: 2671773696
I0208 04:47:28.553975 178710 layer_factory.hpp:77] Creating layer inception_3a/3x3_reduce
I0208 04:47:28.553990 178710 net.cpp:100] Creating Layer inception_3a/3x3_reduce
I0208 04:47:28.553993 178710 net.cpp:434] inception_3a/3x3_reduce <- pool2/3x3_s2_pool2/3x3_s2_0_split_1
I0208 04:47:28.554002 178710 net.cpp:408] inception_3a/3x3_reduce -> inception_3a/3x3_reduce
I0208 04:47:28.554147 178710 net.cpp:150] Setting up inception_3a/3x3_reduce
I0208 04:47:28.554152 178710 net.cpp:157] Top shape: 128 96 28 28 (9633792)
I0208 04:47:28.554153 178710 net.cpp:165] Memory required for data: 2710308864
I0208 04:47:28.554162 178710 layer_factory.hpp:77] Creating layer inception_3a/relu_3x3_reduce
I0208 04:47:28.554167 178710 net.cpp:100] Creating Layer inception_3a/relu_3x3_reduce
I0208 04:47:28.554170 178710 net.cpp:434] inception_3a/relu_3x3_reduce <- inception_3a/3x3_reduce
I0208 04:47:28.554174 178710 net.cpp:395] inception_3a/relu_3x3_reduce -> inception_3a/3x3_reduce (in-place)
I0208 04:47:28.554178 178710 net.cpp:150] Setting up inception_3a/relu_3x3_reduce
I0208 04:47:28.554181 178710 net.cpp:157] Top shape: 128 96 28 28 (9633792)
I0208 04:47:28.554183 178710 net.cpp:165] Memory required for data: 2748844032
I0208 04:47:28.554185 178710 layer_factory.hpp:77] Creating layer inception_3a/3x3
I0208 04:47:28.554199 178710 net.cpp:100] Creating Layer inception_3a/3x3
I0208 04:47:28.554201 178710 net.cpp:434] inception_3a/3x3 <- inception_3a/3x3_reduce
I0208 04:47:28.554208 178710 net.cpp:408] inception_3a/3x3 -> inception_3a/3x3
I0208 04:47:28.554882 178710 net.cpp:150] Setting up inception_3a/3x3
I0208 04:47:28.554886 178710 net.cpp:157] Top shape: 128 128 28 28 (12845056)
I0208 04:47:28.554888 178710 net.cpp:165] Memory required for data: 2800224256
I0208 04:47:28.554893 178710 layer_factory.hpp:77] Creating layer inception_3a/relu_3x3
I0208 04:47:28.554916 178710 net.cpp:100] Creating Layer inception_3a/relu_3x3
I0208 04:47:28.554919 178710 net.cpp:434] inception_3a/relu_3x3 <- inception_3a/3x3
I0208 04:47:28.554924 178710 net.cpp:395] inception_3a/relu_3x3 -> inception_3a/3x3 (in-place)
I0208 04:47:28.554929 178710 net.cpp:150] Setting up inception_3a/relu_3x3
I0208 04:47:28.554931 178710 net.cpp:157] Top shape: 128 128 28 28 (12845056)
I0208 04:47:28.554934 178710 net.cpp:165] Memory required for data: 2851604480
I0208 04:47:28.554935 178710 layer_factory.hpp:77] Creating layer inception_3a/5x5_reduce
I0208 04:47:28.554944 178710 net.cpp:100] Creating Layer inception_3a/5x5_reduce
I0208 04:47:28.554947 178710 net.cpp:434] inception_3a/5x5_reduce <- pool2/3x3_s2_pool2/3x3_s2_0_split_2
I0208 04:47:28.554952 178710 net.cpp:408] inception_3a/5x5_reduce -> inception_3a/5x5_reduce
I0208 04:47:28.555006 178710 net.cpp:150] Setting up inception_3a/5x5_reduce
I0208 04:47:28.555011 178710 net.cpp:157] Top shape: 128 16 28 28 (1605632)
I0208 04:47:28.555012 178710 net.cpp:165] Memory required for data: 2858027008
I0208 04:47:28.555018 178710 layer_factory.hpp:77] Creating layer inception_3a/relu_5x5_reduce
I0208 04:47:28.555024 178710 net.cpp:100] Creating Layer inception_3a/relu_5x5_reduce
I0208 04:47:28.555027 178710 net.cpp:434] inception_3a/relu_5x5_reduce <- inception_3a/5x5_reduce
I0208 04:47:28.555034 178710 net.cpp:395] inception_3a/relu_5x5_reduce -> inception_3a/5x5_reduce (in-place)
I0208 04:47:28.555039 178710 net.cpp:150] Setting up inception_3a/relu_5x5_reduce
I0208 04:47:28.555042 178710 net.cpp:157] Top shape: 128 16 28 28 (1605632)
I0208 04:47:28.555044 178710 net.cpp:165] Memory required for data: 2864449536
I0208 04:47:28.555047 178710 layer_factory.hpp:77] Creating layer inception_3a/5x5
I0208 04:47:28.555061 178710 net.cpp:100] Creating Layer inception_3a/5x5
I0208 04:47:28.555064 178710 net.cpp:434] inception_3a/5x5 <- inception_3a/5x5_reduce
I0208 04:47:28.555071 178710 net.cpp:408] inception_3a/5x5 -> inception_3a/5x5
I0208 04:47:28.555176 178710 net.cpp:150] Setting up inception_3a/5x5
I0208 04:47:28.555181 178710 net.cpp:157] Top shape: 128 32 28 28 (3211264)
I0208 04:47:28.555183 178710 net.cpp:165] Memory required for data: 2877294592
I0208 04:47:28.555188 178710 layer_factory.hpp:77] Creating layer inception_3a/relu_5x5
I0208 04:47:28.555197 178710 net.cpp:100] Creating Layer inception_3a/relu_5x5
I0208 04:47:28.555198 178710 net.cpp:434] inception_3a/relu_5x5 <- inception_3a/5x5
I0208 04:47:28.555204 178710 net.cpp:395] inception_3a/relu_5x5 -> inception_3a/5x5 (in-place)
I0208 04:47:28.555209 178710 net.cpp:150] Setting up inception_3a/relu_5x5
I0208 04:47:28.555213 178710 net.cpp:157] Top shape: 128 32 28 28 (3211264)
I0208 04:47:28.555215 178710 net.cpp:165] Memory required for data: 2890139648
I0208 04:47:28.555217 178710 layer_factory.hpp:77] Creating layer inception_3a/pool
I0208 04:47:28.555224 178710 net.cpp:100] Creating Layer inception_3a/pool
I0208 04:47:28.555227 178710 net.cpp:434] inception_3a/pool <- pool2/3x3_s2_pool2/3x3_s2_0_split_3
I0208 04:47:28.555233 178710 net.cpp:408] inception_3a/pool -> inception_3a/pool
I0208 04:47:28.555240 178710 net.cpp:150] Setting up inception_3a/pool
I0208 04:47:28.555243 178710 net.cpp:157] Top shape: 128 192 28 28 (19267584)
I0208 04:47:28.555245 178710 net.cpp:165] Memory required for data: 2967209984
I0208 04:47:28.555248 178710 layer_factory.hpp:77] Creating layer inception_3a/pool_proj
I0208 04:47:28.555258 178710 net.cpp:100] Creating Layer inception_3a/pool_proj
I0208 04:47:28.555260 178710 net.cpp:434] inception_3a/pool_proj <- inception_3a/pool
I0208 04:47:28.555271 178710 net.cpp:408] inception_3a/pool_proj -> inception_3a/pool_proj
I0208 04:47:28.555344 178710 net.cpp:150] Setting up inception_3a/pool_proj
I0208 04:47:28.555349 178710 net.cpp:157] Top shape: 128 32 28 28 (3211264)
I0208 04:47:28.555351 178710 net.cpp:165] Memory required for data: 2980055040
I0208 04:47:28.555361 178710 layer_factory.hpp:77] Creating layer inception_3a/relu_pool_proj
I0208 04:47:28.555366 178710 net.cpp:100] Creating Layer inception_3a/relu_pool_proj
I0208 04:47:28.555368 178710 net.cpp:434] inception_3a/relu_pool_proj <- inception_3a/pool_proj
I0208 04:47:28.555373 178710 net.cpp:395] inception_3a/relu_pool_proj -> inception_3a/pool_proj (in-place)
I0208 04:47:28.555377 178710 net.cpp:150] Setting up inception_3a/relu_pool_proj
I0208 04:47:28.555382 178710 net.cpp:157] Top shape: 128 32 28 28 (3211264)
I0208 04:47:28.555383 178710 net.cpp:165] Memory required for data: 2992900096
I0208 04:47:28.555385 178710 layer_factory.hpp:77] Creating layer inception_3a/output
I0208 04:47:28.555397 178710 net.cpp:100] Creating Layer inception_3a/output
I0208 04:47:28.555399 178710 net.cpp:434] inception_3a/output <- inception_3a/1x1
I0208 04:47:28.555402 178710 net.cpp:434] inception_3a/output <- inception_3a/3x3
I0208 04:47:28.555405 178710 net.cpp:434] inception_3a/output <- inception_3a/5x5
I0208 04:47:28.555408 178710 net.cpp:434] inception_3a/output <- inception_3a/pool_proj
I0208 04:47:28.555413 178710 net.cpp:408] inception_3a/output -> inception_3a/output
I0208 04:47:28.555423 178710 net.cpp:150] Setting up inception_3a/output
I0208 04:47:28.555425 178710 net.cpp:157] Top shape: 128 256 28 28 (25690112)
I0208 04:47:28.555428 178710 net.cpp:165] Memory required for data: 3095660544
I0208 04:47:28.555429 178710 layer_factory.hpp:77] Creating layer inception_3a/output_inception_3a/output_0_split
I0208 04:47:28.555435 178710 net.cpp:100] Creating Layer inception_3a/output_inception_3a/output_0_split
I0208 04:47:28.555438 178710 net.cpp:434] inception_3a/output_inception_3a/output_0_split <- inception_3a/output
I0208 04:47:28.555444 178710 net.cpp:408] inception_3a/output_inception_3a/output_0_split -> inception_3a/output_inception_3a/output_0_split_0
I0208 04:47:28.555451 178710 net.cpp:408] inception_3a/output_inception_3a/output_0_split -> inception_3a/output_inception_3a/output_0_split_1
I0208 04:47:28.555456 178710 net.cpp:408] inception_3a/output_inception_3a/output_0_split -> inception_3a/output_inception_3a/output_0_split_2
I0208 04:47:28.555462 178710 net.cpp:408] inception_3a/output_inception_3a/output_0_split -> inception_3a/output_inception_3a/output_0_split_3
I0208 04:47:28.555475 178710 net.cpp:150] Setting up inception_3a/output_inception_3a/output_0_split
I0208 04:47:28.555480 178710 net.cpp:157] Top shape: 128 256 28 28 (25690112)
I0208 04:47:28.555483 178710 net.cpp:157] Top shape: 128 256 28 28 (25690112)
I0208 04:47:28.555485 178710 net.cpp:157] Top shape: 128 256 28 28 (25690112)
I0208 04:47:28.555488 178710 net.cpp:157] Top shape: 128 256 28 28 (25690112)
I0208 04:47:28.555490 178710 net.cpp:165] Memory required for data: 3506702336
I0208 04:47:28.555492 178710 layer_factory.hpp:77] Creating layer inception_3b/1x1
I0208 04:47:28.555506 178710 net.cpp:100] Creating Layer inception_3b/1x1
I0208 04:47:28.555508 178710 net.cpp:434] inception_3b/1x1 <- inception_3a/output_inception_3a/output_0_split_0
I0208 04:47:28.555515 178710 net.cpp:408] inception_3b/1x1 -> inception_3b/1x1
I0208 04:47:28.555748 178710 net.cpp:150] Setting up inception_3b/1x1
I0208 04:47:28.555753 178710 net.cpp:157] Top shape: 128 128 28 28 (12845056)
I0208 04:47:28.555755 178710 net.cpp:165] Memory required for data: 3558082560
I0208 04:47:28.555759 178710 layer_factory.hpp:77] Creating layer inception_3b/relu_1x1
I0208 04:47:28.555765 178710 net.cpp:100] Creating Layer inception_3b/relu_1x1
I0208 04:47:28.555768 178710 net.cpp:434] inception_3b/relu_1x1 <- inception_3b/1x1
I0208 04:47:28.555773 178710 net.cpp:395] inception_3b/relu_1x1 -> inception_3b/1x1 (in-place)
I0208 04:47:28.555778 178710 net.cpp:150] Setting up inception_3b/relu_1x1
I0208 04:47:28.555780 178710 net.cpp:157] Top shape: 128 128 28 28 (12845056)
I0208 04:47:28.555783 178710 net.cpp:165] Memory required for data: 3609462784
I0208 04:47:28.555784 178710 layer_factory.hpp:77] Creating layer inception_3b/3x3_reduce
I0208 04:47:28.555794 178710 net.cpp:100] Creating Layer inception_3b/3x3_reduce
I0208 04:47:28.555796 178710 net.cpp:434] inception_3b/3x3_reduce <- inception_3a/output_inception_3a/output_0_split_1
I0208 04:47:28.555804 178710 net.cpp:408] inception_3b/3x3_reduce -> inception_3b/3x3_reduce
I0208 04:47:28.556028 178710 net.cpp:150] Setting up inception_3b/3x3_reduce
I0208 04:47:28.556035 178710 net.cpp:157] Top shape: 128 128 28 28 (12845056)
I0208 04:47:28.556036 178710 net.cpp:165] Memory required for data: 3660843008
I0208 04:47:28.556041 178710 layer_factory.hpp:77] Creating layer inception_3b/relu_3x3_reduce
I0208 04:47:28.556047 178710 net.cpp:100] Creating Layer inception_3b/relu_3x3_reduce
I0208 04:47:28.556053 178710 net.cpp:434] inception_3b/relu_3x3_reduce <- inception_3b/3x3_reduce
I0208 04:47:28.556058 178710 net.cpp:395] inception_3b/relu_3x3_reduce -> inception_3b/3x3_reduce (in-place)
I0208 04:47:28.556062 178710 net.cpp:150] Setting up inception_3b/relu_3x3_reduce
I0208 04:47:28.556066 178710 net.cpp:157] Top shape: 128 128 28 28 (12845056)
I0208 04:47:28.556067 178710 net.cpp:165] Memory required for data: 3712223232
I0208 04:47:28.556069 178710 layer_factory.hpp:77] Creating layer inception_3b/3x3
I0208 04:47:28.556085 178710 net.cpp:100] Creating Layer inception_3b/3x3
I0208 04:47:28.556088 178710 net.cpp:434] inception_3b/3x3 <- inception_3b/3x3_reduce
I0208 04:47:28.556097 178710 net.cpp:408] inception_3b/3x3 -> inception_3b/3x3
I0208 04:47:28.557401 178710 net.cpp:150] Setting up inception_3b/3x3
I0208 04:47:28.557407 178710 net.cpp:157] Top shape: 128 192 28 28 (19267584)
I0208 04:47:28.557410 178710 net.cpp:165] Memory required for data: 3789293568
I0208 04:47:28.557415 178710 layer_factory.hpp:77] Creating layer inception_3b/relu_3x3
I0208 04:47:28.557435 178710 net.cpp:100] Creating Layer inception_3b/relu_3x3
I0208 04:47:28.557438 178710 net.cpp:434] inception_3b/relu_3x3 <- inception_3b/3x3
I0208 04:47:28.557442 178710 net.cpp:395] inception_3b/relu_3x3 -> inception_3b/3x3 (in-place)
I0208 04:47:28.557447 178710 net.cpp:150] Setting up inception_3b/relu_3x3
I0208 04:47:28.557451 178710 net.cpp:157] Top shape: 128 192 28 28 (19267584)
I0208 04:47:28.557452 178710 net.cpp:165] Memory required for data: 3866363904
I0208 04:47:28.557454 178710 layer_factory.hpp:77] Creating layer inception_3b/5x5_reduce
I0208 04:47:28.557464 178710 net.cpp:100] Creating Layer inception_3b/5x5_reduce
I0208 04:47:28.557466 178710 net.cpp:434] inception_3b/5x5_reduce <- inception_3a/output_inception_3a/output_0_split_2
I0208 04:47:28.557473 178710 net.cpp:408] inception_3b/5x5_reduce -> inception_3b/5x5_reduce
I0208 04:47:28.557557 178710 net.cpp:150] Setting up inception_3b/5x5_reduce
I0208 04:47:28.557562 178710 net.cpp:157] Top shape: 128 32 28 28 (3211264)
I0208 04:47:28.557564 178710 net.cpp:165] Memory required for data: 3879208960
I0208 04:47:28.557569 178710 layer_factory.hpp:77] Creating layer inception_3b/relu_5x5_reduce
I0208 04:47:28.557574 178710 net.cpp:100] Creating Layer inception_3b/relu_5x5_reduce
I0208 04:47:28.557577 178710 net.cpp:434] inception_3b/relu_5x5_reduce <- inception_3b/5x5_reduce
I0208 04:47:28.557581 178710 net.cpp:395] inception_3b/relu_5x5_reduce -> inception_3b/5x5_reduce (in-place)
I0208 04:47:28.557585 178710 net.cpp:150] Setting up inception_3b/relu_5x5_reduce
I0208 04:47:28.557588 178710 net.cpp:157] Top shape: 128 32 28 28 (3211264)
I0208 04:47:28.557590 178710 net.cpp:165] Memory required for data: 3892054016
I0208 04:47:28.557592 178710 layer_factory.hpp:77] Creating layer inception_3b/5x5
I0208 04:47:28.557603 178710 net.cpp:100] Creating Layer inception_3b/5x5
I0208 04:47:28.557607 178710 net.cpp:434] inception_3b/5x5 <- inception_3b/5x5_reduce
I0208 04:47:28.557615 178710 net.cpp:408] inception_3b/5x5 -> inception_3b/5x5
I0208 04:47:28.558145 178710 net.cpp:150] Setting up inception_3b/5x5
I0208 04:47:28.558151 178710 net.cpp:157] Top shape: 128 96 28 28 (9633792)
I0208 04:47:28.558153 178710 net.cpp:165] Memory required for data: 3930589184
I0208 04:47:28.558157 178710 layer_factory.hpp:77] Creating layer inception_3b/relu_5x5
I0208 04:47:28.558163 178710 net.cpp:100] Creating Layer inception_3b/relu_5x5
I0208 04:47:28.558166 178710 net.cpp:434] inception_3b/relu_5x5 <- inception_3b/5x5
I0208 04:47:28.558171 178710 net.cpp:395] inception_3b/relu_5x5 -> inception_3b/5x5 (in-place)
I0208 04:47:28.558176 178710 net.cpp:150] Setting up inception_3b/relu_5x5
I0208 04:47:28.558177 178710 net.cpp:157] Top shape: 128 96 28 28 (9633792)
I0208 04:47:28.558179 178710 net.cpp:165] Memory required for data: 3969124352
I0208 04:47:28.558182 178710 layer_factory.hpp:77] Creating layer inception_3b/pool
I0208 04:47:28.558187 178710 net.cpp:100] Creating Layer inception_3b/pool
I0208 04:47:28.558190 178710 net.cpp:434] inception_3b/pool <- inception_3a/output_inception_3a/output_0_split_3
I0208 04:47:28.558212 178710 net.cpp:408] inception_3b/pool -> inception_3b/pool
I0208 04:47:28.558223 178710 net.cpp:150] Setting up inception_3b/pool
I0208 04:47:28.558226 178710 net.cpp:157] Top shape: 128 256 28 28 (25690112)
I0208 04:47:28.558229 178710 net.cpp:165] Memory required for data: 4071884800
I0208 04:47:28.558231 178710 layer_factory.hpp:77] Creating layer inception_3b/pool_proj
I0208 04:47:28.558243 178710 net.cpp:100] Creating Layer inception_3b/pool_proj
I0208 04:47:28.558246 178710 net.cpp:434] inception_3b/pool_proj <- inception_3b/pool
I0208 04:47:28.558254 178710 net.cpp:408] inception_3b/pool_proj -> inception_3b/pool_proj
I0208 04:47:28.558379 178710 net.cpp:150] Setting up inception_3b/pool_proj
I0208 04:47:28.558383 178710 net.cpp:157] Top shape: 128 64 28 28 (6422528)
I0208 04:47:28.558385 178710 net.cpp:165] Memory required for data: 4097574912
I0208 04:47:28.558390 178710 layer_factory.hpp:77] Creating layer inception_3b/relu_pool_proj
I0208 04:47:28.558396 178710 net.cpp:100] Creating Layer inception_3b/relu_pool_proj
I0208 04:47:28.558399 178710 net.cpp:434] inception_3b/relu_pool_proj <- inception_3b/pool_proj
I0208 04:47:28.558403 178710 net.cpp:395] inception_3b/relu_pool_proj -> inception_3b/pool_proj (in-place)
I0208 04:47:28.558408 178710 net.cpp:150] Setting up inception_3b/relu_pool_proj
I0208 04:47:28.558410 178710 net.cpp:157] Top shape: 128 64 28 28 (6422528)
I0208 04:47:28.558413 178710 net.cpp:165] Memory required for data: 4123265024
I0208 04:47:28.558414 178710 layer_factory.hpp:77] Creating layer inception_3b/output
I0208 04:47:28.558420 178710 net.cpp:100] Creating Layer inception_3b/output
I0208 04:47:28.558423 178710 net.cpp:434] inception_3b/output <- inception_3b/1x1
I0208 04:47:28.558426 178710 net.cpp:434] inception_3b/output <- inception_3b/3x3
I0208 04:47:28.558429 178710 net.cpp:434] inception_3b/output <- inception_3b/5x5
I0208 04:47:28.558432 178710 net.cpp:434] inception_3b/output <- inception_3b/pool_proj
I0208 04:47:28.558436 178710 net.cpp:408] inception_3b/output -> inception_3b/output
I0208 04:47:28.558442 178710 net.cpp:150] Setting up inception_3b/output
I0208 04:47:28.558445 178710 net.cpp:157] Top shape: 128 480 28 28 (48168960)
I0208 04:47:28.558447 178710 net.cpp:165] Memory required for data: 4315940864
I0208 04:47:28.558449 178710 layer_factory.hpp:77] Creating layer pool3/3x3_s2
I0208 04:47:28.558456 178710 net.cpp:100] Creating Layer pool3/3x3_s2
I0208 04:47:28.558459 178710 net.cpp:434] pool3/3x3_s2 <- inception_3b/output
I0208 04:47:28.558465 178710 net.cpp:408] pool3/3x3_s2 -> pool3/3x3_s2
I0208 04:47:28.558475 178710 net.cpp:150] Setting up pool3/3x3_s2
I0208 04:47:28.558478 178710 net.cpp:157] Top shape: 128 480 14 14 (12042240)
I0208 04:47:28.558480 178710 net.cpp:165] Memory required for data: 4364109824
I0208 04:47:28.558482 178710 layer_factory.hpp:77] Creating layer pool3/3x3_s2_pool3/3x3_s2_0_split
I0208 04:47:28.558488 178710 net.cpp:100] Creating Layer pool3/3x3_s2_pool3/3x3_s2_0_split
I0208 04:47:28.558490 178710 net.cpp:434] pool3/3x3_s2_pool3/3x3_s2_0_split <- pool3/3x3_s2
I0208 04:47:28.558495 178710 net.cpp:408] pool3/3x3_s2_pool3/3x3_s2_0_split -> pool3/3x3_s2_pool3/3x3_s2_0_split_0
I0208 04:47:28.558501 178710 net.cpp:408] pool3/3x3_s2_pool3/3x3_s2_0_split -> pool3/3x3_s2_pool3/3x3_s2_0_split_1
I0208 04:47:28.558506 178710 net.cpp:408] pool3/3x3_s2_pool3/3x3_s2_0_split -> pool3/3x3_s2_pool3/3x3_s2_0_split_2
I0208 04:47:28.558512 178710 net.cpp:408] pool3/3x3_s2_pool3/3x3_s2_0_split -> pool3/3x3_s2_pool3/3x3_s2_0_split_3
I0208 04:47:28.558524 178710 net.cpp:150] Setting up pool3/3x3_s2_pool3/3x3_s2_0_split
I0208 04:47:28.558526 178710 net.cpp:157] Top shape: 128 480 14 14 (12042240)
I0208 04:47:28.558529 178710 net.cpp:157] Top shape: 128 480 14 14 (12042240)
I0208 04:47:28.558532 178710 net.cpp:157] Top shape: 128 480 14 14 (12042240)
I0208 04:47:28.558535 178710 net.cpp:157] Top shape: 128 480 14 14 (12042240)
I0208 04:47:28.558537 178710 net.cpp:165] Memory required for data: 4556785664
I0208 04:47:28.558539 178710 layer_factory.hpp:77] Creating layer inception_4a/1x1
I0208 04:47:28.558548 178710 net.cpp:100] Creating Layer inception_4a/1x1
I0208 04:47:28.558552 178710 net.cpp:434] inception_4a/1x1 <- pool3/3x3_s2_pool3/3x3_s2_0_split_0
I0208 04:47:28.558558 178710 net.cpp:408] inception_4a/1x1 -> inception_4a/1x1
I0208 04:47:28.559142 178710 net.cpp:150] Setting up inception_4a/1x1
I0208 04:47:28.559147 178710 net.cpp:157] Top shape: 128 192 14 14 (4816896)
I0208 04:47:28.559149 178710 net.cpp:165] Memory required for data: 4576053248
I0208 04:47:28.559154 178710 layer_factory.hpp:77] Creating layer inception_4a/relu_1x1
I0208 04:47:28.559175 178710 net.cpp:100] Creating Layer inception_4a/relu_1x1
I0208 04:47:28.559178 178710 net.cpp:434] inception_4a/relu_1x1 <- inception_4a/1x1
I0208 04:47:28.559183 178710 net.cpp:395] inception_4a/relu_1x1 -> inception_4a/1x1 (in-place)
I0208 04:47:28.559187 178710 net.cpp:150] Setting up inception_4a/relu_1x1
I0208 04:47:28.559190 178710 net.cpp:157] Top shape: 128 192 14 14 (4816896)
I0208 04:47:28.559192 178710 net.cpp:165] Memory required for data: 4595320832
I0208 04:47:28.559193 178710 layer_factory.hpp:77] Creating layer inception_4a/3x3_reduce
I0208 04:47:28.559206 178710 net.cpp:100] Creating Layer inception_4a/3x3_reduce
I0208 04:47:28.559207 178710 net.cpp:434] inception_4a/3x3_reduce <- pool3/3x3_s2_pool3/3x3_s2_0_split_1
I0208 04:47:28.559216 178710 net.cpp:408] inception_4a/3x3_reduce -> inception_4a/3x3_reduce
I0208 04:47:28.559528 178710 net.cpp:150] Setting up inception_4a/3x3_reduce
I0208 04:47:28.559535 178710 net.cpp:157] Top shape: 128 96 14 14 (2408448)
I0208 04:47:28.559536 178710 net.cpp:165] Memory required for data: 4604954624
I0208 04:47:28.559547 178710 layer_factory.hpp:77] Creating layer inception_4a/relu_3x3_reduce
I0208 04:47:28.559571 178710 net.cpp:100] Creating Layer inception_4a/relu_3x3_reduce
I0208 04:47:28.559572 178710 net.cpp:434] inception_4a/relu_3x3_reduce <- inception_4a/3x3_reduce
I0208 04:47:28.559594 178710 net.cpp:395] inception_4a/relu_3x3_reduce -> inception_4a/3x3_reduce (in-place)
I0208 04:47:28.559599 178710 net.cpp:150] Setting up inception_4a/relu_3x3_reduce
I0208 04:47:28.559602 178710 net.cpp:157] Top shape: 128 96 14 14 (2408448)
I0208 04:47:28.559604 178710 net.cpp:165] Memory required for data: 4614588416
I0208 04:47:28.559607 178710 layer_factory.hpp:77] Creating layer inception_4a/3x3
I0208 04:47:28.559617 178710 net.cpp:100] Creating Layer inception_4a/3x3
I0208 04:47:28.559622 178710 net.cpp:434] inception_4a/3x3 <- inception_4a/3x3_reduce
I0208 04:47:28.559628 178710 net.cpp:408] inception_4a/3x3 -> inception_4a/3x3
I0208 04:47:28.560685 178710 net.cpp:150] Setting up inception_4a/3x3
I0208 04:47:28.560691 178710 net.cpp:157] Top shape: 128 208 14 14 (5218304)
I0208 04:47:28.560693 178710 net.cpp:165] Memory required for data: 4635461632
I0208 04:47:28.560698 178710 layer_factory.hpp:77] Creating layer inception_4a/relu_3x3
I0208 04:47:28.560717 178710 net.cpp:100] Creating Layer inception_4a/relu_3x3
I0208 04:47:28.560720 178710 net.cpp:434] inception_4a/relu_3x3 <- inception_4a/3x3
I0208 04:47:28.560725 178710 net.cpp:395] inception_4a/relu_3x3 -> inception_4a/3x3 (in-place)
I0208 04:47:28.560729 178710 net.cpp:150] Setting up inception_4a/relu_3x3
I0208 04:47:28.560732 178710 net.cpp:157] Top shape: 128 208 14 14 (5218304)
I0208 04:47:28.560734 178710 net.cpp:165] Memory required for data: 4656334848
I0208 04:47:28.560736 178710 layer_factory.hpp:77] Creating layer inception_4a/5x5_reduce
I0208 04:47:28.560763 178710 net.cpp:100] Creating Layer inception_4a/5x5_reduce
I0208 04:47:28.560767 178710 net.cpp:434] inception_4a/5x5_reduce <- pool3/3x3_s2_pool3/3x3_s2_0_split_2
I0208 04:47:28.560775 178710 net.cpp:408] inception_4a/5x5_reduce -> inception_4a/5x5_reduce
I0208 04:47:28.560844 178710 net.cpp:150] Setting up inception_4a/5x5_reduce
I0208 04:47:28.560848 178710 net.cpp:157] Top shape: 128 16 14 14 (401408)
I0208 04:47:28.560850 178710 net.cpp:165] Memory required for data: 4657940480
I0208 04:47:28.560855 178710 layer_factory.hpp:77] Creating layer inception_4a/relu_5x5_reduce
I0208 04:47:28.560861 178710 net.cpp:100] Creating Layer inception_4a/relu_5x5_reduce
I0208 04:47:28.560863 178710 net.cpp:434] inception_4a/relu_5x5_reduce <- inception_4a/5x5_reduce
I0208 04:47:28.560868 178710 net.cpp:395] inception_4a/relu_5x5_reduce -> inception_4a/5x5_reduce (in-place)
I0208 04:47:28.560873 178710 net.cpp:150] Setting up inception_4a/relu_5x5_reduce
I0208 04:47:28.560875 178710 net.cpp:157] Top shape: 128 16 14 14 (401408)
I0208 04:47:28.560878 178710 net.cpp:165] Memory required for data: 4659546112
I0208 04:47:28.560879 178710 layer_factory.hpp:77] Creating layer inception_4a/5x5
I0208 04:47:28.560891 178710 net.cpp:100] Creating Layer inception_4a/5x5
I0208 04:47:28.560894 178710 net.cpp:434] inception_4a/5x5 <- inception_4a/5x5_reduce
I0208 04:47:28.560899 178710 net.cpp:408] inception_4a/5x5 -> inception_4a/5x5
I0208 04:47:28.561045 178710 net.cpp:150] Setting up inception_4a/5x5
I0208 04:47:28.561054 178710 net.cpp:157] Top shape: 128 48 14 14 (1204224)
I0208 04:47:28.561058 178710 net.cpp:165] Memory required for data: 4664363008
I0208 04:47:28.561061 178710 layer_factory.hpp:77] Creating layer inception_4a/relu_5x5
I0208 04:47:28.561069 178710 net.cpp:100] Creating Layer inception_4a/relu_5x5
I0208 04:47:28.561071 178710 net.cpp:434] inception_4a/relu_5x5 <- inception_4a/5x5
I0208 04:47:28.561076 178710 net.cpp:395] inception_4a/relu_5x5 -> inception_4a/5x5 (in-place)
I0208 04:47:28.561080 178710 net.cpp:150] Setting up inception_4a/relu_5x5
I0208 04:47:28.561084 178710 net.cpp:157] Top shape: 128 48 14 14 (1204224)
I0208 04:47:28.561086 178710 net.cpp:165] Memory required for data: 4669179904
I0208 04:47:28.561089 178710 layer_factory.hpp:77] Creating layer inception_4a/pool
I0208 04:47:28.561094 178710 net.cpp:100] Creating Layer inception_4a/pool
I0208 04:47:28.561095 178710 net.cpp:434] inception_4a/pool <- pool3/3x3_s2_pool3/3x3_s2_0_split_3
I0208 04:47:28.561101 178710 net.cpp:408] inception_4a/pool -> inception_4a/pool
I0208 04:47:28.561111 178710 net.cpp:150] Setting up inception_4a/pool
I0208 04:47:28.561115 178710 net.cpp:157] Top shape: 128 480 14 14 (12042240)
I0208 04:47:28.561116 178710 net.cpp:165] Memory required for data: 4717348864
I0208 04:47:28.561118 178710 layer_factory.hpp:77] Creating layer inception_4a/pool_proj
I0208 04:47:28.561130 178710 net.cpp:100] Creating Layer inception_4a/pool_proj
I0208 04:47:28.561133 178710 net.cpp:434] inception_4a/pool_proj <- inception_4a/pool
I0208 04:47:28.561141 178710 net.cpp:408] inception_4a/pool_proj -> inception_4a/pool_proj
I0208 04:47:28.561357 178710 net.cpp:150] Setting up inception_4a/pool_proj
I0208 04:47:28.561362 178710 net.cpp:157] Top shape: 128 64 14 14 (1605632)
I0208 04:47:28.561363 178710 net.cpp:165] Memory required for data: 4723771392
I0208 04:47:28.561368 178710 layer_factory.hpp:77] Creating layer inception_4a/relu_pool_proj
I0208 04:47:28.561374 178710 net.cpp:100] Creating Layer inception_4a/relu_pool_proj
I0208 04:47:28.561378 178710 net.cpp:434] inception_4a/relu_pool_proj <- inception_4a/pool_proj
I0208 04:47:28.561381 178710 net.cpp:395] inception_4a/relu_pool_proj -> inception_4a/pool_proj (in-place)
I0208 04:47:28.561385 178710 net.cpp:150] Setting up inception_4a/relu_pool_proj
I0208 04:47:28.561388 178710 net.cpp:157] Top shape: 128 64 14 14 (1605632)
I0208 04:47:28.561390 178710 net.cpp:165] Memory required for data: 4730193920
I0208 04:47:28.561393 178710 layer_factory.hpp:77] Creating layer inception_4a/output
I0208 04:47:28.561399 178710 net.cpp:100] Creating Layer inception_4a/output
I0208 04:47:28.561403 178710 net.cpp:434] inception_4a/output <- inception_4a/1x1
I0208 04:47:28.561405 178710 net.cpp:434] inception_4a/output <- inception_4a/3x3
I0208 04:47:28.561408 178710 net.cpp:434] inception_4a/output <- inception_4a/5x5
I0208 04:47:28.561411 178710 net.cpp:434] inception_4a/output <- inception_4a/pool_proj
I0208 04:47:28.561415 178710 net.cpp:408] inception_4a/output -> inception_4a/output
I0208 04:47:28.561422 178710 net.cpp:150] Setting up inception_4a/output
I0208 04:47:28.561425 178710 net.cpp:157] Top shape: 128 512 14 14 (12845056)
I0208 04:47:28.561427 178710 net.cpp:165] Memory required for data: 4781574144
I0208 04:47:28.561429 178710 layer_factory.hpp:77] Creating layer inception_4a/output_inception_4a/output_0_split
I0208 04:47:28.561439 178710 net.cpp:100] Creating Layer inception_4a/output_inception_4a/output_0_split
I0208 04:47:28.561440 178710 net.cpp:434] inception_4a/output_inception_4a/output_0_split <- inception_4a/output
I0208 04:47:28.561446 178710 net.cpp:408] inception_4a/output_inception_4a/output_0_split -> inception_4a/output_inception_4a/output_0_split_0
I0208 04:47:28.561452 178710 net.cpp:408] inception_4a/output_inception_4a/output_0_split -> inception_4a/output_inception_4a/output_0_split_1
I0208 04:47:28.561456 178710 net.cpp:408] inception_4a/output_inception_4a/output_0_split -> inception_4a/output_inception_4a/output_0_split_2
I0208 04:47:28.561462 178710 net.cpp:408] inception_4a/output_inception_4a/output_0_split -> inception_4a/output_inception_4a/output_0_split_3
I0208 04:47:28.561470 178710 net.cpp:408] inception_4a/output_inception_4a/output_0_split -> inception_4a/output_inception_4a/output_0_split_4
I0208 04:47:28.561483 178710 net.cpp:150] Setting up inception_4a/output_inception_4a/output_0_split
I0208 04:47:28.561487 178710 net.cpp:157] Top shape: 128 512 14 14 (12845056)
I0208 04:47:28.561491 178710 net.cpp:157] Top shape: 128 512 14 14 (12845056)
I0208 04:47:28.561492 178710 net.cpp:157] Top shape: 128 512 14 14 (12845056)
I0208 04:47:28.561496 178710 net.cpp:157] Top shape: 128 512 14 14 (12845056)
I0208 04:47:28.561498 178710 net.cpp:157] Top shape: 128 512 14 14 (12845056)
I0208 04:47:28.561501 178710 net.cpp:165] Memory required for data: 5038475264
I0208 04:47:28.561502 178710 layer_factory.hpp:77] Creating layer loss1/ave_pool
I0208 04:47:28.561507 178710 net.cpp:100] Creating Layer loss1/ave_pool
I0208 04:47:28.561509 178710 net.cpp:434] loss1/ave_pool <- inception_4a/output_inception_4a/output_0_split_0
I0208 04:47:28.561517 178710 net.cpp:408] loss1/ave_pool -> loss1/ave_pool
I0208 04:47:28.561522 178710 net.cpp:150] Setting up loss1/ave_pool
I0208 04:47:28.561525 178710 net.cpp:157] Top shape: 128 512 4 4 (1048576)
I0208 04:47:28.561527 178710 net.cpp:165] Memory required for data: 5042669568
I0208 04:47:28.561529 178710 layer_factory.hpp:77] Creating layer loss1/conv
I0208 04:47:28.561542 178710 net.cpp:100] Creating Layer loss1/conv
I0208 04:47:28.561545 178710 net.cpp:434] loss1/conv <- loss1/ave_pool
I0208 04:47:28.561552 178710 net.cpp:408] loss1/conv -> loss1/conv
I0208 04:47:28.561980 178710 net.cpp:150] Setting up loss1/conv
I0208 04:47:28.561986 178710 net.cpp:157] Top shape: 128 128 4 4 (262144)
I0208 04:47:28.561988 178710 net.cpp:165] Memory required for data: 5043718144
I0208 04:47:28.561993 178710 layer_factory.hpp:77] Creating layer loss1/relu_conv
I0208 04:47:28.561998 178710 net.cpp:100] Creating Layer loss1/relu_conv
I0208 04:47:28.562000 178710 net.cpp:434] loss1/relu_conv <- loss1/conv
I0208 04:47:28.562005 178710 net.cpp:395] loss1/relu_conv -> loss1/conv (in-place)
I0208 04:47:28.562026 178710 net.cpp:150] Setting up loss1/relu_conv
I0208 04:47:28.562028 178710 net.cpp:157] Top shape: 128 128 4 4 (262144)
I0208 04:47:28.562031 178710 net.cpp:165] Memory required for data: 5044766720
I0208 04:47:28.562033 178710 layer_factory.hpp:77] Creating layer loss1/fc
I0208 04:47:28.562042 178710 net.cpp:100] Creating Layer loss1/fc
I0208 04:47:28.562046 178710 net.cpp:434] loss1/fc <- loss1/conv
I0208 04:47:28.562055 178710 net.cpp:408] loss1/fc -> loss1/fc
I0208 04:47:28.582057 178710 net.cpp:150] Setting up loss1/fc
I0208 04:47:28.582104 178710 net.cpp:157] Top shape: 128 1024 (131072)
I0208 04:47:28.582110 178710 net.cpp:165] Memory required for data: 5045291008
I0208 04:47:28.582123 178710 layer_factory.hpp:77] Creating layer loss1/relu_fc
I0208 04:47:28.582139 178710 net.cpp:100] Creating Layer loss1/relu_fc
I0208 04:47:28.582146 178710 net.cpp:434] loss1/relu_fc <- loss1/fc
I0208 04:47:28.582175 178710 net.cpp:395] loss1/relu_fc -> loss1/fc (in-place)
I0208 04:47:28.582186 178710 net.cpp:150] Setting up loss1/relu_fc
I0208 04:47:28.582200 178710 net.cpp:157] Top shape: 128 1024 (131072)
I0208 04:47:28.582203 178710 net.cpp:165] Memory required for data: 5045815296
I0208 04:47:28.582207 178710 layer_factory.hpp:77] Creating layer loss1/classifier
I0208 04:47:28.582237 178710 net.cpp:100] Creating Layer loss1/classifier
I0208 04:47:28.582245 178710 net.cpp:434] loss1/classifier <- loss1/fc
I0208 04:47:28.582257 178710 net.cpp:408] loss1/classifier -> loss1/classifier
I0208 04:47:28.591410 178710 net.cpp:150] Setting up loss1/classifier
I0208 04:47:28.591425 178710 net.cpp:157] Top shape: 128 1000 (128000)
I0208 04:47:28.591446 178710 net.cpp:165] Memory required for data: 5046327296
I0208 04:47:28.591457 178710 layer_factory.hpp:77] Creating layer loss1/loss
I0208 04:47:28.591475 178710 net.cpp:100] Creating Layer loss1/loss
I0208 04:47:28.591480 178710 net.cpp:434] loss1/loss <- loss1/classifier
I0208 04:47:28.591488 178710 net.cpp:434] loss1/loss <- label_data_1_split_0
I0208 04:47:28.591516 178710 net.cpp:408] loss1/loss -> loss1/loss1
I0208 04:47:28.591532 178710 layer_factory.hpp:77] Creating layer loss1/loss
I0208 04:47:28.591909 178710 net.cpp:150] Setting up loss1/loss
I0208 04:47:28.591919 178710 net.cpp:157] Top shape: (1)
I0208 04:47:28.591923 178710 net.cpp:160]     with loss weight 0.3
I0208 04:47:28.591967 178710 net.cpp:165] Memory required for data: 5046327300
I0208 04:47:28.591972 178710 layer_factory.hpp:77] Creating layer inception_4b/1x1
I0208 04:47:28.592011 178710 net.cpp:100] Creating Layer inception_4b/1x1
I0208 04:47:28.592021 178710 net.cpp:434] inception_4b/1x1 <- inception_4a/output_inception_4a/output_0_split_1
I0208 04:47:28.592032 178710 net.cpp:408] inception_4b/1x1 -> inception_4b/1x1
I0208 04:47:28.592953 178710 net.cpp:150] Setting up inception_4b/1x1
I0208 04:47:28.592965 178710 net.cpp:157] Top shape: 128 160 14 14 (4014080)
I0208 04:47:28.592970 178710 net.cpp:165] Memory required for data: 5062383620
I0208 04:47:28.592998 178710 layer_factory.hpp:77] Creating layer inception_4b/relu_1x1
I0208 04:47:28.593006 178710 net.cpp:100] Creating Layer inception_4b/relu_1x1
I0208 04:47:28.593014 178710 net.cpp:434] inception_4b/relu_1x1 <- inception_4b/1x1
I0208 04:47:28.593021 178710 net.cpp:395] inception_4b/relu_1x1 -> inception_4b/1x1 (in-place)
I0208 04:47:28.593029 178710 net.cpp:150] Setting up inception_4b/relu_1x1
I0208 04:47:28.593056 178710 net.cpp:157] Top shape: 128 160 14 14 (4014080)
I0208 04:47:28.593060 178710 net.cpp:165] Memory required for data: 5078439940
I0208 04:47:28.593065 178710 layer_factory.hpp:77] Creating layer inception_4b/3x3_reduce
I0208 04:47:28.593086 178710 net.cpp:100] Creating Layer inception_4b/3x3_reduce
I0208 04:47:28.593093 178710 net.cpp:434] inception_4b/3x3_reduce <- inception_4a/output_inception_4a/output_0_split_2
I0208 04:47:28.593104 178710 net.cpp:408] inception_4b/3x3_reduce -> inception_4b/3x3_reduce
I0208 04:47:28.593786 178710 net.cpp:150] Setting up inception_4b/3x3_reduce
I0208 04:47:28.593798 178710 net.cpp:157] Top shape: 128 112 14 14 (2809856)
I0208 04:47:28.593802 178710 net.cpp:165] Memory required for data: 5089679364
I0208 04:47:28.593827 178710 layer_factory.hpp:77] Creating layer inception_4b/relu_3x3_reduce
I0208 04:47:28.593835 178710 net.cpp:100] Creating Layer inception_4b/relu_3x3_reduce
I0208 04:47:28.593840 178710 net.cpp:434] inception_4b/relu_3x3_reduce <- inception_4b/3x3_reduce
I0208 04:47:28.593849 178710 net.cpp:395] inception_4b/relu_3x3_reduce -> inception_4b/3x3_reduce (in-place)
I0208 04:47:28.593858 178710 net.cpp:150] Setting up inception_4b/relu_3x3_reduce
I0208 04:47:28.593863 178710 net.cpp:157] Top shape: 128 112 14 14 (2809856)
I0208 04:47:28.593883 178710 net.cpp:165] Memory required for data: 5100918788
I0208 04:47:28.593886 178710 layer_factory.hpp:77] Creating layer inception_4b/3x3
I0208 04:47:28.593906 178710 net.cpp:100] Creating Layer inception_4b/3x3
I0208 04:47:28.593911 178710 net.cpp:434] inception_4b/3x3 <- inception_4b/3x3_reduce
I0208 04:47:28.593921 178710 net.cpp:408] inception_4b/3x3 -> inception_4b/3x3
I0208 04:47:28.596400 178710 net.cpp:150] Setting up inception_4b/3x3
I0208 04:47:28.596413 178710 net.cpp:157] Top shape: 128 224 14 14 (5619712)
I0208 04:47:28.596436 178710 net.cpp:165] Memory required for data: 5123397636
I0208 04:47:28.596444 178710 layer_factory.hpp:77] Creating layer inception_4b/relu_3x3
I0208 04:47:28.596454 178710 net.cpp:100] Creating Layer inception_4b/relu_3x3
I0208 04:47:28.596460 178710 net.cpp:434] inception_4b/relu_3x3 <- inception_4b/3x3
I0208 04:47:28.596468 178710 net.cpp:395] inception_4b/relu_3x3 -> inception_4b/3x3 (in-place)
I0208 04:47:28.596477 178710 net.cpp:150] Setting up inception_4b/relu_3x3
I0208 04:47:28.596513 178710 net.cpp:157] Top shape: 128 224 14 14 (5619712)
I0208 04:47:28.596518 178710 net.cpp:165] Memory required for data: 5145876484
I0208 04:47:28.596521 178710 layer_factory.hpp:77] Creating layer inception_4b/5x5_reduce
I0208 04:47:28.596539 178710 net.cpp:100] Creating Layer inception_4b/5x5_reduce
I0208 04:47:28.596549 178710 net.cpp:434] inception_4b/5x5_reduce <- inception_4a/output_inception_4a/output_0_split_3
I0208 04:47:28.596559 178710 net.cpp:408] inception_4b/5x5_reduce -> inception_4b/5x5_reduce
I0208 04:47:28.596740 178710 net.cpp:150] Setting up inception_4b/5x5_reduce
I0208 04:47:28.596750 178710 net.cpp:157] Top shape: 128 24 14 14 (602112)
I0208 04:47:28.596752 178710 net.cpp:165] Memory required for data: 5148284932
I0208 04:47:28.596760 178710 layer_factory.hpp:77] Creating layer inception_4b/relu_5x5_reduce
I0208 04:47:28.596770 178710 net.cpp:100] Creating Layer inception_4b/relu_5x5_reduce
I0208 04:47:28.596774 178710 net.cpp:434] inception_4b/relu_5x5_reduce <- inception_4b/5x5_reduce
I0208 04:47:28.596782 178710 net.cpp:395] inception_4b/relu_5x5_reduce -> inception_4b/5x5_reduce (in-place)
I0208 04:47:28.596789 178710 net.cpp:150] Setting up inception_4b/relu_5x5_reduce
I0208 04:47:28.596796 178710 net.cpp:157] Top shape: 128 24 14 14 (602112)
I0208 04:47:28.596799 178710 net.cpp:165] Memory required for data: 5150693380
I0208 04:47:28.596804 178710 layer_factory.hpp:77] Creating layer inception_4b/5x5
I0208 04:47:28.596822 178710 net.cpp:100] Creating Layer inception_4b/5x5
I0208 04:47:28.596828 178710 net.cpp:434] inception_4b/5x5 <- inception_4b/5x5_reduce
I0208 04:47:28.596839 178710 net.cpp:408] inception_4b/5x5 -> inception_4b/5x5
I0208 04:47:28.598129 178710 net.cpp:150] Setting up inception_4b/5x5
I0208 04:47:28.598141 178710 net.cpp:157] Top shape: 128 64 14 14 (1605632)
I0208 04:47:28.598146 178710 net.cpp:165] Memory required for data: 5157115908
I0208 04:47:28.598171 178710 layer_factory.hpp:77] Creating layer inception_4b/relu_5x5
I0208 04:47:28.598182 178710 net.cpp:100] Creating Layer inception_4b/relu_5x5
I0208 04:47:28.598187 178710 net.cpp:434] inception_4b/relu_5x5 <- inception_4b/5x5
I0208 04:47:28.598196 178710 net.cpp:395] inception_4b/relu_5x5 -> inception_4b/5x5 (in-place)
I0208 04:47:28.598204 178710 net.cpp:150] Setting up inception_4b/relu_5x5
I0208 04:47:28.598242 178710 net.cpp:157] Top shape: 128 64 14 14 (1605632)
I0208 04:47:28.598245 178710 net.cpp:165] Memory required for data: 5163538436
I0208 04:47:28.598249 178710 layer_factory.hpp:77] Creating layer inception_4b/pool
I0208 04:47:28.598259 178710 net.cpp:100] Creating Layer inception_4b/pool
I0208 04:47:28.598265 178710 net.cpp:434] inception_4b/pool <- inception_4a/output_inception_4a/output_0_split_4
I0208 04:47:28.598273 178710 net.cpp:408] inception_4b/pool -> inception_4b/pool
I0208 04:47:28.598310 178710 net.cpp:150] Setting up inception_4b/pool
I0208 04:47:28.598320 178710 net.cpp:157] Top shape: 128 512 14 14 (12845056)
I0208 04:47:28.598325 178710 net.cpp:165] Memory required for data: 5214918660
I0208 04:47:28.598330 178710 layer_factory.hpp:77] Creating layer inception_4b/pool_proj
I0208 04:47:28.598346 178710 net.cpp:100] Creating Layer inception_4b/pool_proj
I0208 04:47:28.598352 178710 net.cpp:434] inception_4b/pool_proj <- inception_4b/pool
I0208 04:47:28.598363 178710 net.cpp:408] inception_4b/pool_proj -> inception_4b/pool_proj
I0208 04:47:28.598848 178710 net.cpp:150] Setting up inception_4b/pool_proj
I0208 04:47:28.598860 178710 net.cpp:157] Top shape: 128 64 14 14 (1605632)
I0208 04:47:28.598865 178710 net.cpp:165] Memory required for data: 5221341188
I0208 04:47:28.598873 178710 layer_factory.hpp:77] Creating layer inception_4b/relu_pool_proj
I0208 04:47:28.598899 178710 net.cpp:100] Creating Layer inception_4b/relu_pool_proj
I0208 04:47:28.598907 178710 net.cpp:434] inception_4b/relu_pool_proj <- inception_4b/pool_proj
I0208 04:47:28.598917 178710 net.cpp:395] inception_4b/relu_pool_proj -> inception_4b/pool_proj (in-place)
I0208 04:47:28.598927 178710 net.cpp:150] Setting up inception_4b/relu_pool_proj
I0208 04:47:28.598933 178710 net.cpp:157] Top shape: 128 64 14 14 (1605632)
I0208 04:47:28.598937 178710 net.cpp:165] Memory required for data: 5227763716
I0208 04:47:28.598942 178710 layer_factory.hpp:77] Creating layer inception_4b/output
I0208 04:47:28.598951 178710 net.cpp:100] Creating Layer inception_4b/output
I0208 04:47:28.598958 178710 net.cpp:434] inception_4b/output <- inception_4b/1x1
I0208 04:47:28.598963 178710 net.cpp:434] inception_4b/output <- inception_4b/3x3
I0208 04:47:28.598968 178710 net.cpp:434] inception_4b/output <- inception_4b/5x5
I0208 04:47:28.598973 178710 net.cpp:434] inception_4b/output <- inception_4b/pool_proj
I0208 04:47:28.598979 178710 net.cpp:408] inception_4b/output -> inception_4b/output
I0208 04:47:28.598996 178710 net.cpp:150] Setting up inception_4b/output
I0208 04:47:28.599002 178710 net.cpp:157] Top shape: 128 512 14 14 (12845056)
I0208 04:47:28.599006 178710 net.cpp:165] Memory required for data: 5279143940
I0208 04:47:28.599010 178710 layer_factory.hpp:77] Creating layer inception_4b/output_inception_4b/output_0_split
I0208 04:47:28.599020 178710 net.cpp:100] Creating Layer inception_4b/output_inception_4b/output_0_split
I0208 04:47:28.599025 178710 net.cpp:434] inception_4b/output_inception_4b/output_0_split <- inception_4b/output
I0208 04:47:28.599033 178710 net.cpp:408] inception_4b/output_inception_4b/output_0_split -> inception_4b/output_inception_4b/output_0_split_0
I0208 04:47:28.599043 178710 net.cpp:408] inception_4b/output_inception_4b/output_0_split -> inception_4b/output_inception_4b/output_0_split_1
I0208 04:47:28.599057 178710 net.cpp:408] inception_4b/output_inception_4b/output_0_split -> inception_4b/output_inception_4b/output_0_split_2
I0208 04:47:28.599067 178710 net.cpp:408] inception_4b/output_inception_4b/output_0_split -> inception_4b/output_inception_4b/output_0_split_3
I0208 04:47:28.599084 178710 net.cpp:150] Setting up inception_4b/output_inception_4b/output_0_split
I0208 04:47:28.599093 178710 net.cpp:157] Top shape: 128 512 14 14 (12845056)
I0208 04:47:28.599098 178710 net.cpp:157] Top shape: 128 512 14 14 (12845056)
I0208 04:47:28.599103 178710 net.cpp:157] Top shape: 128 512 14 14 (12845056)
I0208 04:47:28.599109 178710 net.cpp:157] Top shape: 128 512 14 14 (12845056)
I0208 04:47:28.599113 178710 net.cpp:165] Memory required for data: 5484664836
I0208 04:47:28.599117 178710 layer_factory.hpp:77] Creating layer inception_4c/1x1
I0208 04:47:28.599138 178710 net.cpp:100] Creating Layer inception_4c/1x1
I0208 04:47:28.599143 178710 net.cpp:434] inception_4c/1x1 <- inception_4b/output_inception_4b/output_0_split_0
I0208 04:47:28.599156 178710 net.cpp:408] inception_4c/1x1 -> inception_4c/1x1
I0208 04:47:28.599895 178710 net.cpp:150] Setting up inception_4c/1x1
I0208 04:47:28.599905 178710 net.cpp:157] Top shape: 128 128 14 14 (3211264)
I0208 04:47:28.599910 178710 net.cpp:165] Memory required for data: 5497509892
I0208 04:47:28.599918 178710 layer_factory.hpp:77] Creating layer inception_4c/relu_1x1
I0208 04:47:28.599927 178710 net.cpp:100] Creating Layer inception_4c/relu_1x1
I0208 04:47:28.599931 178710 net.cpp:434] inception_4c/relu_1x1 <- inception_4c/1x1
I0208 04:47:28.599939 178710 net.cpp:395] inception_4c/relu_1x1 -> inception_4c/1x1 (in-place)
I0208 04:47:28.599948 178710 net.cpp:150] Setting up inception_4c/relu_1x1
I0208 04:47:28.599956 178710 net.cpp:157] Top shape: 128 128 14 14 (3211264)
I0208 04:47:28.599958 178710 net.cpp:165] Memory required for data: 5510354948
I0208 04:47:28.599962 178710 layer_factory.hpp:77] Creating layer inception_4c/3x3_reduce
I0208 04:47:28.599985 178710 net.cpp:100] Creating Layer inception_4c/3x3_reduce
I0208 04:47:28.599992 178710 net.cpp:434] inception_4c/3x3_reduce <- inception_4b/output_inception_4b/output_0_split_1
I0208 04:47:28.600003 178710 net.cpp:408] inception_4c/3x3_reduce -> inception_4c/3x3_reduce
I0208 04:47:28.600762 178710 net.cpp:150] Setting up inception_4c/3x3_reduce
I0208 04:47:28.600772 178710 net.cpp:157] Top shape: 128 128 14 14 (3211264)
I0208 04:47:28.600776 178710 net.cpp:165] Memory required for data: 5523200004
I0208 04:47:28.600783 178710 layer_factory.hpp:77] Creating layer inception_4c/relu_3x3_reduce
I0208 04:47:28.600792 178710 net.cpp:100] Creating Layer inception_4c/relu_3x3_reduce
I0208 04:47:28.600796 178710 net.cpp:434] inception_4c/relu_3x3_reduce <- inception_4c/3x3_reduce
I0208 04:47:28.600803 178710 net.cpp:395] inception_4c/relu_3x3_reduce -> inception_4c/3x3_reduce (in-place)
I0208 04:47:28.600811 178710 net.cpp:150] Setting up inception_4c/relu_3x3_reduce
I0208 04:47:28.600816 178710 net.cpp:157] Top shape: 128 128 14 14 (3211264)
I0208 04:47:28.600818 178710 net.cpp:165] Memory required for data: 5536045060
I0208 04:47:28.600822 178710 layer_factory.hpp:77] Creating layer inception_4c/3x3
I0208 04:47:28.600838 178710 net.cpp:100] Creating Layer inception_4c/3x3
I0208 04:47:28.600843 178710 net.cpp:434] inception_4c/3x3 <- inception_4c/3x3_reduce
I0208 04:47:28.600853 178710 net.cpp:408] inception_4c/3x3 -> inception_4c/3x3
I0208 04:47:28.606808 178710 net.cpp:150] Setting up inception_4c/3x3
I0208 04:47:28.606822 178710 net.cpp:157] Top shape: 128 256 14 14 (6422528)
I0208 04:47:28.606840 178710 net.cpp:165] Memory required for data: 5561735172
I0208 04:47:28.606873 178710 layer_factory.hpp:77] Creating layer inception_4c/relu_3x3
I0208 04:47:28.606884 178710 net.cpp:100] Creating Layer inception_4c/relu_3x3
I0208 04:47:28.606890 178710 net.cpp:434] inception_4c/relu_3x3 <- inception_4c/3x3
I0208 04:47:28.606899 178710 net.cpp:395] inception_4c/relu_3x3 -> inception_4c/3x3 (in-place)
I0208 04:47:28.606907 178710 net.cpp:150] Setting up inception_4c/relu_3x3
I0208 04:47:28.606914 178710 net.cpp:157] Top shape: 128 256 14 14 (6422528)
I0208 04:47:28.606917 178710 net.cpp:165] Memory required for data: 5587425284
I0208 04:47:28.606921 178710 layer_factory.hpp:77] Creating layer inception_4c/5x5_reduce
I0208 04:47:28.606935 178710 net.cpp:100] Creating Layer inception_4c/5x5_reduce
I0208 04:47:28.606943 178710 net.cpp:434] inception_4c/5x5_reduce <- inception_4b/output_inception_4b/output_0_split_2
I0208 04:47:28.606955 178710 net.cpp:408] inception_4c/5x5_reduce -> inception_4c/5x5_reduce
I0208 04:47:28.607144 178710 net.cpp:150] Setting up inception_4c/5x5_reduce
I0208 04:47:28.607154 178710 net.cpp:157] Top shape: 128 24 14 14 (602112)
I0208 04:47:28.607158 178710 net.cpp:165] Memory required for data: 5589833732
I0208 04:47:28.607167 178710 layer_factory.hpp:77] Creating layer inception_4c/relu_5x5_reduce
I0208 04:47:28.607177 178710 net.cpp:100] Creating Layer inception_4c/relu_5x5_reduce
I0208 04:47:28.607190 178710 net.cpp:434] inception_4c/relu_5x5_reduce <- inception_4c/5x5_reduce
I0208 04:47:28.607201 178710 net.cpp:395] inception_4c/relu_5x5_reduce -> inception_4c/5x5_reduce (in-place)
I0208 04:47:28.607209 178710 net.cpp:150] Setting up inception_4c/relu_5x5_reduce
I0208 04:47:28.607215 178710 net.cpp:157] Top shape: 128 24 14 14 (602112)
I0208 04:47:28.607219 178710 net.cpp:165] Memory required for data: 5592242180
I0208 04:47:28.607223 178710 layer_factory.hpp:77] Creating layer inception_4c/5x5
I0208 04:47:28.607242 178710 net.cpp:100] Creating Layer inception_4c/5x5
I0208 04:47:28.607249 178710 net.cpp:434] inception_4c/5x5 <- inception_4c/5x5_reduce
I0208 04:47:28.607259 178710 net.cpp:408] inception_4c/5x5 -> inception_4c/5x5
I0208 04:47:28.609019 178710 net.cpp:150] Setting up inception_4c/5x5
I0208 04:47:28.609030 178710 net.cpp:157] Top shape: 128 64 14 14 (1605632)
I0208 04:47:28.609035 178710 net.cpp:165] Memory required for data: 5598664708
I0208 04:47:28.609061 178710 layer_factory.hpp:77] Creating layer inception_4c/relu_5x5
I0208 04:47:28.609071 178710 net.cpp:100] Creating Layer inception_4c/relu_5x5
I0208 04:47:28.609094 178710 net.cpp:434] inception_4c/relu_5x5 <- inception_4c/5x5
I0208 04:47:28.609103 178710 net.cpp:395] inception_4c/relu_5x5 -> inception_4c/5x5 (in-place)
I0208 04:47:28.609114 178710 net.cpp:150] Setting up inception_4c/relu_5x5
I0208 04:47:28.609122 178710 net.cpp:157] Top shape: 128 64 14 14 (1605632)
I0208 04:47:28.609125 178710 net.cpp:165] Memory required for data: 5605087236
I0208 04:47:28.609129 178710 layer_factory.hpp:77] Creating layer inception_4c/pool
I0208 04:47:28.609138 178710 net.cpp:100] Creating Layer inception_4c/pool
I0208 04:47:28.609144 178710 net.cpp:434] inception_4c/pool <- inception_4b/output_inception_4b/output_0_split_3
I0208 04:47:28.609153 178710 net.cpp:408] inception_4c/pool -> inception_4c/pool
I0208 04:47:28.609169 178710 net.cpp:150] Setting up inception_4c/pool
I0208 04:47:28.609177 178710 net.cpp:157] Top shape: 128 512 14 14 (12845056)
I0208 04:47:28.609181 178710 net.cpp:165] Memory required for data: 5656467460
I0208 04:47:28.609185 178710 layer_factory.hpp:77] Creating layer inception_4c/pool_proj
I0208 04:47:28.609206 178710 net.cpp:100] Creating Layer inception_4c/pool_proj
I0208 04:47:28.609212 178710 net.cpp:434] inception_4c/pool_proj <- inception_4c/pool
I0208 04:47:28.609223 178710 net.cpp:408] inception_4c/pool_proj -> inception_4c/pool_proj
I0208 04:47:28.609642 178710 net.cpp:150] Setting up inception_4c/pool_proj
I0208 04:47:28.609652 178710 net.cpp:157] Top shape: 128 64 14 14 (1605632)
I0208 04:47:28.609657 178710 net.cpp:165] Memory required for data: 5662889988
I0208 04:47:28.609665 178710 layer_factory.hpp:77] Creating layer inception_4c/relu_pool_proj
I0208 04:47:28.609691 178710 net.cpp:100] Creating Layer inception_4c/relu_pool_proj
I0208 04:47:28.609696 178710 net.cpp:434] inception_4c/relu_pool_proj <- inception_4c/pool_proj
I0208 04:47:28.609704 178710 net.cpp:395] inception_4c/relu_pool_proj -> inception_4c/pool_proj (in-place)
I0208 04:47:28.609712 178710 net.cpp:150] Setting up inception_4c/relu_pool_proj
I0208 04:47:28.609720 178710 net.cpp:157] Top shape: 128 64 14 14 (1605632)
I0208 04:47:28.609726 178710 net.cpp:165] Memory required for data: 5669312516
I0208 04:47:28.609730 178710 layer_factory.hpp:77] Creating layer inception_4c/output
I0208 04:47:28.609738 178710 net.cpp:100] Creating Layer inception_4c/output
I0208 04:47:28.609743 178710 net.cpp:434] inception_4c/output <- inception_4c/1x1
I0208 04:47:28.609750 178710 net.cpp:434] inception_4c/output <- inception_4c/3x3
I0208 04:47:28.609755 178710 net.cpp:434] inception_4c/output <- inception_4c/5x5
I0208 04:47:28.609758 178710 net.cpp:434] inception_4c/output <- inception_4c/pool_proj
I0208 04:47:28.609766 178710 net.cpp:408] inception_4c/output -> inception_4c/output
I0208 04:47:28.609779 178710 net.cpp:150] Setting up inception_4c/output
I0208 04:47:28.609787 178710 net.cpp:157] Top shape: 128 512 14 14 (12845056)
I0208 04:47:28.609791 178710 net.cpp:165] Memory required for data: 5720692740
I0208 04:47:28.609794 178710 layer_factory.hpp:77] Creating layer inception_4c/output_inception_4c/output_0_split
I0208 04:47:28.609802 178710 net.cpp:100] Creating Layer inception_4c/output_inception_4c/output_0_split
I0208 04:47:28.609805 178710 net.cpp:434] inception_4c/output_inception_4c/output_0_split <- inception_4c/output
I0208 04:47:28.609814 178710 net.cpp:408] inception_4c/output_inception_4c/output_0_split -> inception_4c/output_inception_4c/output_0_split_0
I0208 04:47:28.609827 178710 net.cpp:408] inception_4c/output_inception_4c/output_0_split -> inception_4c/output_inception_4c/output_0_split_1
I0208 04:47:28.609838 178710 net.cpp:408] inception_4c/output_inception_4c/output_0_split -> inception_4c/output_inception_4c/output_0_split_2
I0208 04:47:28.609846 178710 net.cpp:408] inception_4c/output_inception_4c/output_0_split -> inception_4c/output_inception_4c/output_0_split_3
I0208 04:47:28.609858 178710 net.cpp:150] Setting up inception_4c/output_inception_4c/output_0_split
I0208 04:47:28.609865 178710 net.cpp:157] Top shape: 128 512 14 14 (12845056)
I0208 04:47:28.609870 178710 net.cpp:157] Top shape: 128 512 14 14 (12845056)
I0208 04:47:28.609875 178710 net.cpp:157] Top shape: 128 512 14 14 (12845056)
I0208 04:47:28.609880 178710 net.cpp:157] Top shape: 128 512 14 14 (12845056)
I0208 04:47:28.609884 178710 net.cpp:165] Memory required for data: 5926213636
I0208 04:47:28.609887 178710 layer_factory.hpp:77] Creating layer inception_4d/1x1
I0208 04:47:28.609902 178710 net.cpp:100] Creating Layer inception_4d/1x1
I0208 04:47:28.609908 178710 net.cpp:434] inception_4d/1x1 <- inception_4c/output_inception_4c/output_0_split_0
I0208 04:47:28.609920 178710 net.cpp:408] inception_4d/1x1 -> inception_4d/1x1
I0208 04:47:28.610622 178710 net.cpp:150] Setting up inception_4d/1x1
I0208 04:47:28.610637 178710 net.cpp:157] Top shape: 128 112 14 14 (2809856)
I0208 04:47:28.610643 178710 net.cpp:165] Memory required for data: 5937453060
I0208 04:47:28.610669 178710 layer_factory.hpp:77] Creating layer inception_4d/relu_1x1
I0208 04:47:28.610679 178710 net.cpp:100] Creating Layer inception_4d/relu_1x1
I0208 04:47:28.610687 178710 net.cpp:434] inception_4d/relu_1x1 <- inception_4d/1x1
I0208 04:47:28.610693 178710 net.cpp:395] inception_4d/relu_1x1 -> inception_4d/1x1 (in-place)
I0208 04:47:28.610702 178710 net.cpp:150] Setting up inception_4d/relu_1x1
I0208 04:47:28.610707 178710 net.cpp:157] Top shape: 128 112 14 14 (2809856)
I0208 04:47:28.610713 178710 net.cpp:165] Memory required for data: 5948692484
I0208 04:47:28.610718 178710 layer_factory.hpp:77] Creating layer inception_4d/3x3_reduce
I0208 04:47:28.610734 178710 net.cpp:100] Creating Layer inception_4d/3x3_reduce
I0208 04:47:28.610741 178710 net.cpp:434] inception_4d/3x3_reduce <- inception_4c/output_inception_4c/output_0_split_1
I0208 04:47:28.610754 178710 net.cpp:408] inception_4d/3x3_reduce -> inception_4d/3x3_reduce
I0208 04:47:28.611603 178710 net.cpp:150] Setting up inception_4d/3x3_reduce
I0208 04:47:28.611613 178710 net.cpp:157] Top shape: 128 144 14 14 (3612672)
I0208 04:47:28.611618 178710 net.cpp:165] Memory required for data: 5963143172
I0208 04:47:28.611645 178710 layer_factory.hpp:77] Creating layer inception_4d/relu_3x3_reduce
I0208 04:47:28.611661 178710 net.cpp:100] Creating Layer inception_4d/relu_3x3_reduce
I0208 04:47:28.611668 178710 net.cpp:434] inception_4d/relu_3x3_reduce <- inception_4d/3x3_reduce
I0208 04:47:28.611677 178710 net.cpp:395] inception_4d/relu_3x3_reduce -> inception_4d/3x3_reduce (in-place)
I0208 04:47:28.611688 178710 net.cpp:150] Setting up inception_4d/relu_3x3_reduce
I0208 04:47:28.611696 178710 net.cpp:157] Top shape: 128 144 14 14 (3612672)
I0208 04:47:28.611701 178710 net.cpp:165] Memory required for data: 5977593860
I0208 04:47:28.611706 178710 layer_factory.hpp:77] Creating layer inception_4d/3x3
I0208 04:47:28.611723 178710 net.cpp:100] Creating Layer inception_4d/3x3
I0208 04:47:28.611728 178710 net.cpp:434] inception_4d/3x3 <- inception_4d/3x3_reduce
I0208 04:47:28.611747 178710 net.cpp:408] inception_4d/3x3 -> inception_4d/3x3
I0208 04:47:28.615798 178710 net.cpp:150] Setting up inception_4d/3x3
I0208 04:47:28.615813 178710 net.cpp:157] Top shape: 128 288 14 14 (7225344)
I0208 04:47:28.615818 178710 net.cpp:165] Memory required for data: 6006495236
I0208 04:47:28.615844 178710 layer_factory.hpp:77] Creating layer inception_4d/relu_3x3
I0208 04:47:28.615859 178710 net.cpp:100] Creating Layer inception_4d/relu_3x3
I0208 04:47:28.615865 178710 net.cpp:434] inception_4d/relu_3x3 <- inception_4d/3x3
I0208 04:47:28.615878 178710 net.cpp:395] inception_4d/relu_3x3 -> inception_4d/3x3 (in-place)
I0208 04:47:28.615890 178710 net.cpp:150] Setting up inception_4d/relu_3x3
I0208 04:47:28.615897 178710 net.cpp:157] Top shape: 128 288 14 14 (7225344)
I0208 04:47:28.615901 178710 net.cpp:165] Memory required for data: 6035396612
I0208 04:47:28.615906 178710 layer_factory.hpp:77] Creating layer inception_4d/5x5_reduce
I0208 04:47:28.615923 178710 net.cpp:100] Creating Layer inception_4d/5x5_reduce
I0208 04:47:28.615931 178710 net.cpp:434] inception_4d/5x5_reduce <- inception_4c/output_inception_4c/output_0_split_2
I0208 04:47:28.615942 178710 net.cpp:408] inception_4d/5x5_reduce -> inception_4d/5x5_reduce
I0208 04:47:28.616176 178710 net.cpp:150] Setting up inception_4d/5x5_reduce
I0208 04:47:28.616186 178710 net.cpp:157] Top shape: 128 32 14 14 (802816)
I0208 04:47:28.616190 178710 net.cpp:165] Memory required for data: 6038607876
I0208 04:47:28.616199 178710 layer_factory.hpp:77] Creating layer inception_4d/relu_5x5_reduce
I0208 04:47:28.616209 178710 net.cpp:100] Creating Layer inception_4d/relu_5x5_reduce
I0208 04:47:28.616214 178710 net.cpp:434] inception_4d/relu_5x5_reduce <- inception_4d/5x5_reduce
I0208 04:47:28.616225 178710 net.cpp:395] inception_4d/relu_5x5_reduce -> inception_4d/5x5_reduce (in-place)
I0208 04:47:28.616233 178710 net.cpp:150] Setting up inception_4d/relu_5x5_reduce
I0208 04:47:28.616240 178710 net.cpp:157] Top shape: 128 32 14 14 (802816)
I0208 04:47:28.616243 178710 net.cpp:165] Memory required for data: 6041819140
I0208 04:47:28.616247 178710 layer_factory.hpp:77] Creating layer inception_4d/5x5
I0208 04:47:28.616261 178710 net.cpp:100] Creating Layer inception_4d/5x5
I0208 04:47:28.616268 178710 net.cpp:434] inception_4d/5x5 <- inception_4d/5x5_reduce
I0208 04:47:28.616279 178710 net.cpp:408] inception_4d/5x5 -> inception_4d/5x5
I0208 04:47:28.616873 178710 net.cpp:150] Setting up inception_4d/5x5
I0208 04:47:28.616888 178710 net.cpp:157] Top shape: 128 64 14 14 (1605632)
I0208 04:47:28.616894 178710 net.cpp:165] Memory required for data: 6048241668
I0208 04:47:28.616921 178710 layer_factory.hpp:77] Creating layer inception_4d/relu_5x5
I0208 04:47:28.616933 178710 net.cpp:100] Creating Layer inception_4d/relu_5x5
I0208 04:47:28.616940 178710 net.cpp:434] inception_4d/relu_5x5 <- inception_4d/5x5
I0208 04:47:28.616948 178710 net.cpp:395] inception_4d/relu_5x5 -> inception_4d/5x5 (in-place)
I0208 04:47:28.616957 178710 net.cpp:150] Setting up inception_4d/relu_5x5
I0208 04:47:28.616964 178710 net.cpp:157] Top shape: 128 64 14 14 (1605632)
I0208 04:47:28.616968 178710 net.cpp:165] Memory required for data: 6054664196
I0208 04:47:28.616973 178710 layer_factory.hpp:77] Creating layer inception_4d/pool
I0208 04:47:28.616983 178710 net.cpp:100] Creating Layer inception_4d/pool
I0208 04:47:28.616991 178710 net.cpp:434] inception_4d/pool <- inception_4c/output_inception_4c/output_0_split_3
I0208 04:47:28.617002 178710 net.cpp:408] inception_4d/pool -> inception_4d/pool
I0208 04:47:28.617025 178710 net.cpp:150] Setting up inception_4d/pool
I0208 04:47:28.617033 178710 net.cpp:157] Top shape: 128 512 14 14 (12845056)
I0208 04:47:28.617038 178710 net.cpp:165] Memory required for data: 6106044420
I0208 04:47:28.617041 178710 layer_factory.hpp:77] Creating layer inception_4d/pool_proj
I0208 04:47:28.617065 178710 net.cpp:100] Creating Layer inception_4d/pool_proj
I0208 04:47:28.617072 178710 net.cpp:434] inception_4d/pool_proj <- inception_4d/pool
I0208 04:47:28.617090 178710 net.cpp:408] inception_4d/pool_proj -> inception_4d/pool_proj
I0208 04:47:28.617497 178710 net.cpp:150] Setting up inception_4d/pool_proj
I0208 04:47:28.617507 178710 net.cpp:157] Top shape: 128 64 14 14 (1605632)
I0208 04:47:28.617512 178710 net.cpp:165] Memory required for data: 6112466948
I0208 04:47:28.617522 178710 layer_factory.hpp:77] Creating layer inception_4d/relu_pool_proj
I0208 04:47:28.617549 178710 net.cpp:100] Creating Layer inception_4d/relu_pool_proj
I0208 04:47:28.617559 178710 net.cpp:434] inception_4d/relu_pool_proj <- inception_4d/pool_proj
I0208 04:47:28.617568 178710 net.cpp:395] inception_4d/relu_pool_proj -> inception_4d/pool_proj (in-place)
I0208 04:47:28.617579 178710 net.cpp:150] Setting up inception_4d/relu_pool_proj
I0208 04:47:28.617586 178710 net.cpp:157] Top shape: 128 64 14 14 (1605632)
I0208 04:47:28.617590 178710 net.cpp:165] Memory required for data: 6118889476
I0208 04:47:28.617594 178710 layer_factory.hpp:77] Creating layer inception_4d/output
I0208 04:47:28.617604 178710 net.cpp:100] Creating Layer inception_4d/output
I0208 04:47:28.617611 178710 net.cpp:434] inception_4d/output <- inception_4d/1x1
I0208 04:47:28.617617 178710 net.cpp:434] inception_4d/output <- inception_4d/3x3
I0208 04:47:28.617622 178710 net.cpp:434] inception_4d/output <- inception_4d/5x5
I0208 04:47:28.617629 178710 net.cpp:434] inception_4d/output <- inception_4d/pool_proj
I0208 04:47:28.617638 178710 net.cpp:408] inception_4d/output -> inception_4d/output
I0208 04:47:28.617650 178710 net.cpp:150] Setting up inception_4d/output
I0208 04:47:28.617657 178710 net.cpp:157] Top shape: 128 528 14 14 (13246464)
I0208 04:47:28.617661 178710 net.cpp:165] Memory required for data: 6171875332
I0208 04:47:28.617666 178710 layer_factory.hpp:77] Creating layer inception_4d/output_inception_4d/output_0_split
I0208 04:47:28.617676 178710 net.cpp:100] Creating Layer inception_4d/output_inception_4d/output_0_split
I0208 04:47:28.617681 178710 net.cpp:434] inception_4d/output_inception_4d/output_0_split <- inception_4d/output
I0208 04:47:28.617689 178710 net.cpp:408] inception_4d/output_inception_4d/output_0_split -> inception_4d/output_inception_4d/output_0_split_0
I0208 04:47:28.617700 178710 net.cpp:408] inception_4d/output_inception_4d/output_0_split -> inception_4d/output_inception_4d/output_0_split_1
I0208 04:47:28.617710 178710 net.cpp:408] inception_4d/output_inception_4d/output_0_split -> inception_4d/output_inception_4d/output_0_split_2
I0208 04:47:28.617719 178710 net.cpp:408] inception_4d/output_inception_4d/output_0_split -> inception_4d/output_inception_4d/output_0_split_3
I0208 04:47:28.617729 178710 net.cpp:408] inception_4d/output_inception_4d/output_0_split -> inception_4d/output_inception_4d/output_0_split_4
I0208 04:47:28.617753 178710 net.cpp:150] Setting up inception_4d/output_inception_4d/output_0_split
I0208 04:47:28.617760 178710 net.cpp:157] Top shape: 128 528 14 14 (13246464)
I0208 04:47:28.617768 178710 net.cpp:157] Top shape: 128 528 14 14 (13246464)
I0208 04:47:28.617772 178710 net.cpp:157] Top shape: 128 528 14 14 (13246464)
I0208 04:47:28.617779 178710 net.cpp:157] Top shape: 128 528 14 14 (13246464)
I0208 04:47:28.617784 178710 net.cpp:157] Top shape: 128 528 14 14 (13246464)
I0208 04:47:28.617789 178710 net.cpp:165] Memory required for data: 6436804612
I0208 04:47:28.617794 178710 layer_factory.hpp:77] Creating layer loss2/ave_pool
I0208 04:47:28.617805 178710 net.cpp:100] Creating Layer loss2/ave_pool
I0208 04:47:28.617812 178710 net.cpp:434] loss2/ave_pool <- inception_4d/output_inception_4d/output_0_split_0
I0208 04:47:28.617823 178710 net.cpp:408] loss2/ave_pool -> loss2/ave_pool
I0208 04:47:28.617837 178710 net.cpp:150] Setting up loss2/ave_pool
I0208 04:47:28.617844 178710 net.cpp:157] Top shape: 128 528 4 4 (1081344)
I0208 04:47:28.617849 178710 net.cpp:165] Memory required for data: 6441129988
I0208 04:47:28.617852 178710 layer_factory.hpp:77] Creating layer loss2/conv
I0208 04:47:28.617871 178710 net.cpp:100] Creating Layer loss2/conv
I0208 04:47:28.617877 178710 net.cpp:434] loss2/conv <- loss2/ave_pool
I0208 04:47:28.617889 178710 net.cpp:408] loss2/conv -> loss2/conv
I0208 04:47:28.618665 178710 net.cpp:150] Setting up loss2/conv
I0208 04:47:28.618677 178710 net.cpp:157] Top shape: 128 128 4 4 (262144)
I0208 04:47:28.618681 178710 net.cpp:165] Memory required for data: 6442178564
I0208 04:47:28.618690 178710 layer_factory.hpp:77] Creating layer loss2/relu_conv
I0208 04:47:28.618702 178710 net.cpp:100] Creating Layer loss2/relu_conv
I0208 04:47:28.618708 178710 net.cpp:434] loss2/relu_conv <- loss2/conv
I0208 04:47:28.618718 178710 net.cpp:395] loss2/relu_conv -> loss2/conv (in-place)
I0208 04:47:28.618727 178710 net.cpp:150] Setting up loss2/relu_conv
I0208 04:47:28.618734 178710 net.cpp:157] Top shape: 128 128 4 4 (262144)
I0208 04:47:28.618737 178710 net.cpp:165] Memory required for data: 6443227140
I0208 04:47:28.618742 178710 layer_factory.hpp:77] Creating layer loss2/fc
I0208 04:47:28.618757 178710 net.cpp:100] Creating Layer loss2/fc
I0208 04:47:28.618762 178710 net.cpp:434] loss2/fc <- loss2/conv
I0208 04:47:28.618775 178710 net.cpp:408] loss2/fc -> loss2/fc
I0208 04:47:28.642971 178710 net.cpp:150] Setting up loss2/fc
I0208 04:47:28.643005 178710 net.cpp:157] Top shape: 128 1024 (131072)
I0208 04:47:28.643012 178710 net.cpp:165] Memory required for data: 6443751428
I0208 04:47:28.643026 178710 layer_factory.hpp:77] Creating layer loss2/relu_fc
I0208 04:47:28.643043 178710 net.cpp:100] Creating Layer loss2/relu_fc
I0208 04:47:28.643069 178710 net.cpp:434] loss2/relu_fc <- loss2/fc
I0208 04:47:28.643085 178710 net.cpp:395] loss2/relu_fc -> loss2/fc (in-place)
I0208 04:47:28.643098 178710 net.cpp:150] Setting up loss2/relu_fc
I0208 04:47:28.643105 178710 net.cpp:157] Top shape: 128 1024 (131072)
I0208 04:47:28.643110 178710 net.cpp:165] Memory required for data: 6444275716
I0208 04:47:28.643115 178710 layer_factory.hpp:77] Creating layer loss2/classifier
I0208 04:47:28.643131 178710 net.cpp:100] Creating Layer loss2/classifier
I0208 04:47:28.643136 178710 net.cpp:434] loss2/classifier <- loss2/fc
I0208 04:47:28.643149 178710 net.cpp:408] loss2/classifier -> loss2/classifier
I0208 04:47:28.654278 178710 net.cpp:150] Setting up loss2/classifier
I0208 04:47:28.654292 178710 net.cpp:157] Top shape: 128 1000 (128000)
I0208 04:47:28.654314 178710 net.cpp:165] Memory required for data: 6444787716
I0208 04:47:28.654325 178710 layer_factory.hpp:77] Creating layer loss2/loss
I0208 04:47:28.654337 178710 net.cpp:100] Creating Layer loss2/loss
I0208 04:47:28.654345 178710 net.cpp:434] loss2/loss <- loss2/classifier
I0208 04:47:28.654355 178710 net.cpp:434] loss2/loss <- label_data_1_split_1
I0208 04:47:28.654366 178710 net.cpp:408] loss2/loss -> loss2/loss1
I0208 04:47:28.654383 178710 layer_factory.hpp:77] Creating layer loss2/loss
I0208 04:47:28.654935 178710 net.cpp:150] Setting up loss2/loss
I0208 04:47:28.654949 178710 net.cpp:157] Top shape: (1)
I0208 04:47:28.654971 178710 net.cpp:160]     with loss weight 0.3
I0208 04:47:28.654990 178710 net.cpp:165] Memory required for data: 6444787720
I0208 04:47:28.654994 178710 layer_factory.hpp:77] Creating layer inception_4e/1x1
I0208 04:47:28.655037 178710 net.cpp:100] Creating Layer inception_4e/1x1
I0208 04:47:28.655046 178710 net.cpp:434] inception_4e/1x1 <- inception_4d/output_inception_4d/output_0_split_1
I0208 04:47:28.655066 178710 net.cpp:408] inception_4e/1x1 -> inception_4e/1x1
I0208 04:47:28.656530 178710 net.cpp:150] Setting up inception_4e/1x1
I0208 04:47:28.656543 178710 net.cpp:157] Top shape: 128 256 14 14 (6422528)
I0208 04:47:28.656564 178710 net.cpp:165] Memory required for data: 6470477832
I0208 04:47:28.656574 178710 layer_factory.hpp:77] Creating layer inception_4e/relu_1x1
I0208 04:47:28.656589 178710 net.cpp:100] Creating Layer inception_4e/relu_1x1
I0208 04:47:28.656594 178710 net.cpp:434] inception_4e/relu_1x1 <- inception_4e/1x1
I0208 04:47:28.656604 178710 net.cpp:395] inception_4e/relu_1x1 -> inception_4e/1x1 (in-place)
I0208 04:47:28.656628 178710 net.cpp:150] Setting up inception_4e/relu_1x1
I0208 04:47:28.656635 178710 net.cpp:157] Top shape: 128 256 14 14 (6422528)
I0208 04:47:28.656637 178710 net.cpp:165] Memory required for data: 6496167944
I0208 04:47:28.656642 178710 layer_factory.hpp:77] Creating layer inception_4e/3x3_reduce
I0208 04:47:28.656656 178710 net.cpp:100] Creating Layer inception_4e/3x3_reduce
I0208 04:47:28.656661 178710 net.cpp:434] inception_4e/3x3_reduce <- inception_4d/output_inception_4d/output_0_split_2
I0208 04:47:28.656671 178710 net.cpp:408] inception_4e/3x3_reduce -> inception_4e/3x3_reduce
I0208 04:47:28.659318 178710 net.cpp:150] Setting up inception_4e/3x3_reduce
I0208 04:47:28.659330 178710 net.cpp:157] Top shape: 128 160 14 14 (4014080)
I0208 04:47:28.659353 178710 net.cpp:165] Memory required for data: 6512224264
I0208 04:47:28.659365 178710 layer_factory.hpp:77] Creating layer inception_4e/relu_3x3_reduce
I0208 04:47:28.659376 178710 net.cpp:100] Creating Layer inception_4e/relu_3x3_reduce
I0208 04:47:28.659381 178710 net.cpp:434] inception_4e/relu_3x3_reduce <- inception_4e/3x3_reduce
I0208 04:47:28.659389 178710 net.cpp:395] inception_4e/relu_3x3_reduce -> inception_4e/3x3_reduce (in-place)
I0208 04:47:28.659415 178710 net.cpp:150] Setting up inception_4e/relu_3x3_reduce
I0208 04:47:28.659432 178710 net.cpp:157] Top shape: 128 160 14 14 (4014080)
I0208 04:47:28.659436 178710 net.cpp:165] Memory required for data: 6528280584
I0208 04:47:28.659441 178710 layer_factory.hpp:77] Creating layer inception_4e/3x3
I0208 04:47:28.659471 178710 net.cpp:100] Creating Layer inception_4e/3x3
I0208 04:47:28.659479 178710 net.cpp:434] inception_4e/3x3 <- inception_4e/3x3_reduce
I0208 04:47:28.659497 178710 net.cpp:408] inception_4e/3x3 -> inception_4e/3x3
I0208 04:47:28.663573 178710 net.cpp:150] Setting up inception_4e/3x3
I0208 04:47:28.663584 178710 net.cpp:157] Top shape: 128 320 14 14 (8028160)
I0208 04:47:28.663589 178710 net.cpp:165] Memory required for data: 6560393224
I0208 04:47:28.663614 178710 layer_factory.hpp:77] Creating layer inception_4e/relu_3x3
I0208 04:47:28.663622 178710 net.cpp:100] Creating Layer inception_4e/relu_3x3
I0208 04:47:28.663628 178710 net.cpp:434] inception_4e/relu_3x3 <- inception_4e/3x3
I0208 04:47:28.663640 178710 net.cpp:395] inception_4e/relu_3x3 -> inception_4e/3x3 (in-place)
I0208 04:47:28.663650 178710 net.cpp:150] Setting up inception_4e/relu_3x3
I0208 04:47:28.663671 178710 net.cpp:157] Top shape: 128 320 14 14 (8028160)
I0208 04:47:28.663676 178710 net.cpp:165] Memory required for data: 6592505864
I0208 04:47:28.663679 178710 layer_factory.hpp:77] Creating layer inception_4e/5x5_reduce
I0208 04:47:28.663702 178710 net.cpp:100] Creating Layer inception_4e/5x5_reduce
I0208 04:47:28.663717 178710 net.cpp:434] inception_4e/5x5_reduce <- inception_4d/output_inception_4d/output_0_split_3
I0208 04:47:28.663725 178710 net.cpp:408] inception_4e/5x5_reduce -> inception_4e/5x5_reduce
I0208 04:47:28.663947 178710 net.cpp:150] Setting up inception_4e/5x5_reduce
I0208 04:47:28.663957 178710 net.cpp:157] Top shape: 128 32 14 14 (802816)
I0208 04:47:28.663961 178710 net.cpp:165] Memory required for data: 6595717128
I0208 04:47:28.663970 178710 layer_factory.hpp:77] Creating layer inception_4e/relu_5x5_reduce
I0208 04:47:28.663981 178710 net.cpp:100] Creating Layer inception_4e/relu_5x5_reduce
I0208 04:47:28.663995 178710 net.cpp:434] inception_4e/relu_5x5_reduce <- inception_4e/5x5_reduce
I0208 04:47:28.664002 178710 net.cpp:395] inception_4e/relu_5x5_reduce -> inception_4e/5x5_reduce (in-place)
I0208 04:47:28.664011 178710 net.cpp:150] Setting up inception_4e/relu_5x5_reduce
I0208 04:47:28.664016 178710 net.cpp:157] Top shape: 128 32 14 14 (802816)
I0208 04:47:28.664019 178710 net.cpp:165] Memory required for data: 6598928392
I0208 04:47:28.664023 178710 layer_factory.hpp:77] Creating layer inception_4e/5x5
I0208 04:47:28.664046 178710 net.cpp:100] Creating Layer inception_4e/5x5
I0208 04:47:28.664055 178710 net.cpp:434] inception_4e/5x5 <- inception_4e/5x5_reduce
I0208 04:47:28.664067 178710 net.cpp:408] inception_4e/5x5 -> inception_4e/5x5
I0208 04:47:28.665766 178710 net.cpp:150] Setting up inception_4e/5x5
I0208 04:47:28.665777 178710 net.cpp:157] Top shape: 128 128 14 14 (3211264)
I0208 04:47:28.665781 178710 net.cpp:165] Memory required for data: 6611773448
I0208 04:47:28.665807 178710 layer_factory.hpp:77] Creating layer inception_4e/relu_5x5
I0208 04:47:28.665817 178710 net.cpp:100] Creating Layer inception_4e/relu_5x5
I0208 04:47:28.665823 178710 net.cpp:434] inception_4e/relu_5x5 <- inception_4e/5x5
I0208 04:47:28.665832 178710 net.cpp:395] inception_4e/relu_5x5 -> inception_4e/5x5 (in-place)
I0208 04:47:28.665838 178710 net.cpp:150] Setting up inception_4e/relu_5x5
I0208 04:47:28.665844 178710 net.cpp:157] Top shape: 128 128 14 14 (3211264)
I0208 04:47:28.665848 178710 net.cpp:165] Memory required for data: 6624618504
I0208 04:47:28.665850 178710 layer_factory.hpp:77] Creating layer inception_4e/pool
I0208 04:47:28.665904 178710 net.cpp:100] Creating Layer inception_4e/pool
I0208 04:47:28.665911 178710 net.cpp:434] inception_4e/pool <- inception_4d/output_inception_4d/output_0_split_4
I0208 04:47:28.665918 178710 net.cpp:408] inception_4e/pool -> inception_4e/pool
I0208 04:47:28.665941 178710 net.cpp:150] Setting up inception_4e/pool
I0208 04:47:28.665948 178710 net.cpp:157] Top shape: 128 528 14 14 (13246464)
I0208 04:47:28.665952 178710 net.cpp:165] Memory required for data: 6677604360
I0208 04:47:28.665956 178710 layer_factory.hpp:77] Creating layer inception_4e/pool_proj
I0208 04:47:28.665973 178710 net.cpp:100] Creating Layer inception_4e/pool_proj
I0208 04:47:28.665985 178710 net.cpp:434] inception_4e/pool_proj <- inception_4e/pool
I0208 04:47:28.665998 178710 net.cpp:408] inception_4e/pool_proj -> inception_4e/pool_proj
I0208 04:47:28.666589 178710 net.cpp:150] Setting up inception_4e/pool_proj
I0208 04:47:28.666597 178710 net.cpp:157] Top shape: 128 128 14 14 (3211264)
I0208 04:47:28.666599 178710 net.cpp:165] Memory required for data: 6690449416
I0208 04:47:28.666604 178710 layer_factory.hpp:77] Creating layer inception_4e/relu_pool_proj
I0208 04:47:28.666610 178710 net.cpp:100] Creating Layer inception_4e/relu_pool_proj
I0208 04:47:28.666613 178710 net.cpp:434] inception_4e/relu_pool_proj <- inception_4e/pool_proj
I0208 04:47:28.666618 178710 net.cpp:395] inception_4e/relu_pool_proj -> inception_4e/pool_proj (in-place)
I0208 04:47:28.666623 178710 net.cpp:150] Setting up inception_4e/relu_pool_proj
I0208 04:47:28.666627 178710 net.cpp:157] Top shape: 128 128 14 14 (3211264)
I0208 04:47:28.666630 178710 net.cpp:165] Memory required for data: 6703294472
I0208 04:47:28.666632 178710 layer_factory.hpp:77] Creating layer inception_4e/output
I0208 04:47:28.666638 178710 net.cpp:100] Creating Layer inception_4e/output
I0208 04:47:28.666641 178710 net.cpp:434] inception_4e/output <- inception_4e/1x1
I0208 04:47:28.666646 178710 net.cpp:434] inception_4e/output <- inception_4e/3x3
I0208 04:47:28.666648 178710 net.cpp:434] inception_4e/output <- inception_4e/5x5
I0208 04:47:28.666651 178710 net.cpp:434] inception_4e/output <- inception_4e/pool_proj
I0208 04:47:28.666656 178710 net.cpp:408] inception_4e/output -> inception_4e/output
I0208 04:47:28.666663 178710 net.cpp:150] Setting up inception_4e/output
I0208 04:47:28.666666 178710 net.cpp:157] Top shape: 128 832 14 14 (20873216)
I0208 04:47:28.666669 178710 net.cpp:165] Memory required for data: 6786787336
I0208 04:47:28.666672 178710 layer_factory.hpp:77] Creating layer pool4/3x3_s2
I0208 04:47:28.666681 178710 net.cpp:100] Creating Layer pool4/3x3_s2
I0208 04:47:28.666683 178710 net.cpp:434] pool4/3x3_s2 <- inception_4e/output
I0208 04:47:28.666688 178710 net.cpp:408] pool4/3x3_s2 -> pool4/3x3_s2
I0208 04:47:28.666697 178710 net.cpp:150] Setting up pool4/3x3_s2
I0208 04:47:28.666702 178710 net.cpp:157] Top shape: 128 832 7 7 (5218304)
I0208 04:47:28.666703 178710 net.cpp:165] Memory required for data: 6807660552
I0208 04:47:28.666707 178710 layer_factory.hpp:77] Creating layer pool4/3x3_s2_pool4/3x3_s2_0_split
I0208 04:47:28.666713 178710 net.cpp:100] Creating Layer pool4/3x3_s2_pool4/3x3_s2_0_split
I0208 04:47:28.666716 178710 net.cpp:434] pool4/3x3_s2_pool4/3x3_s2_0_split <- pool4/3x3_s2
I0208 04:47:28.666723 178710 net.cpp:408] pool4/3x3_s2_pool4/3x3_s2_0_split -> pool4/3x3_s2_pool4/3x3_s2_0_split_0
I0208 04:47:28.666734 178710 net.cpp:408] pool4/3x3_s2_pool4/3x3_s2_0_split -> pool4/3x3_s2_pool4/3x3_s2_0_split_1
I0208 04:47:28.666740 178710 net.cpp:408] pool4/3x3_s2_pool4/3x3_s2_0_split -> pool4/3x3_s2_pool4/3x3_s2_0_split_2
I0208 04:47:28.666745 178710 net.cpp:408] pool4/3x3_s2_pool4/3x3_s2_0_split -> pool4/3x3_s2_pool4/3x3_s2_0_split_3
I0208 04:47:28.666757 178710 net.cpp:150] Setting up pool4/3x3_s2_pool4/3x3_s2_0_split
I0208 04:47:28.666762 178710 net.cpp:157] Top shape: 128 832 7 7 (5218304)
I0208 04:47:28.666765 178710 net.cpp:157] Top shape: 128 832 7 7 (5218304)
I0208 04:47:28.666769 178710 net.cpp:157] Top shape: 128 832 7 7 (5218304)
I0208 04:47:28.666771 178710 net.cpp:157] Top shape: 128 832 7 7 (5218304)
I0208 04:47:28.666774 178710 net.cpp:165] Memory required for data: 6891153416
I0208 04:47:28.666777 178710 layer_factory.hpp:77] Creating layer inception_5a/1x1
I0208 04:47:28.666791 178710 net.cpp:100] Creating Layer inception_5a/1x1
I0208 04:47:28.666795 178710 net.cpp:434] inception_5a/1x1 <- pool4/3x3_s2_pool4/3x3_s2_0_split_0
I0208 04:47:28.666802 178710 net.cpp:408] inception_5a/1x1 -> inception_5a/1x1
I0208 04:47:28.668834 178710 net.cpp:150] Setting up inception_5a/1x1
I0208 04:47:28.668848 178710 net.cpp:157] Top shape: 128 256 7 7 (1605632)
I0208 04:47:28.668853 178710 net.cpp:165] Memory required for data: 6897575944
I0208 04:47:28.668881 178710 layer_factory.hpp:77] Creating layer inception_5a/relu_1x1
I0208 04:47:28.668896 178710 net.cpp:100] Creating Layer inception_5a/relu_1x1
I0208 04:47:28.668902 178710 net.cpp:434] inception_5a/relu_1x1 <- inception_5a/1x1
I0208 04:47:28.668908 178710 net.cpp:395] inception_5a/relu_1x1 -> inception_5a/1x1 (in-place)
I0208 04:47:28.668922 178710 net.cpp:150] Setting up inception_5a/relu_1x1
I0208 04:47:28.668931 178710 net.cpp:157] Top shape: 128 256 7 7 (1605632)
I0208 04:47:28.668934 178710 net.cpp:165] Memory required for data: 6903998472
I0208 04:47:28.668938 178710 layer_factory.hpp:77] Creating layer inception_5a/3x3_reduce
I0208 04:47:28.668959 178710 net.cpp:100] Creating Layer inception_5a/3x3_reduce
I0208 04:47:28.668967 178710 net.cpp:434] inception_5a/3x3_reduce <- pool4/3x3_s2_pool4/3x3_s2_0_split_1
I0208 04:47:28.668978 178710 net.cpp:408] inception_5a/3x3_reduce -> inception_5a/3x3_reduce
I0208 04:47:28.670438 178710 net.cpp:150] Setting up inception_5a/3x3_reduce
I0208 04:47:28.670449 178710 net.cpp:157] Top shape: 128 160 7 7 (1003520)
I0208 04:47:28.670454 178710 net.cpp:165] Memory required for data: 6908012552
I0208 04:47:28.670461 178710 layer_factory.hpp:77] Creating layer inception_5a/relu_3x3_reduce
I0208 04:47:28.670497 178710 net.cpp:100] Creating Layer inception_5a/relu_3x3_reduce
I0208 04:47:28.670505 178710 net.cpp:434] inception_5a/relu_3x3_reduce <- inception_5a/3x3_reduce
I0208 04:47:28.670513 178710 net.cpp:395] inception_5a/relu_3x3_reduce -> inception_5a/3x3_reduce (in-place)
I0208 04:47:28.670526 178710 net.cpp:150] Setting up inception_5a/relu_3x3_reduce
I0208 04:47:28.670534 178710 net.cpp:157] Top shape: 128 160 7 7 (1003520)
I0208 04:47:28.670538 178710 net.cpp:165] Memory required for data: 6912026632
I0208 04:47:28.670543 178710 layer_factory.hpp:77] Creating layer inception_5a/3x3
I0208 04:47:28.670565 178710 net.cpp:100] Creating Layer inception_5a/3x3
I0208 04:47:28.670573 178710 net.cpp:434] inception_5a/3x3 <- inception_5a/3x3_reduce
I0208 04:47:28.670585 178710 net.cpp:408] inception_5a/3x3 -> inception_5a/3x3
I0208 04:47:28.674273 178710 net.cpp:150] Setting up inception_5a/3x3
I0208 04:47:28.674285 178710 net.cpp:157] Top shape: 128 320 7 7 (2007040)
I0208 04:47:28.674289 178710 net.cpp:165] Memory required for data: 6920054792
I0208 04:47:28.674300 178710 layer_factory.hpp:77] Creating layer inception_5a/relu_3x3
I0208 04:47:28.674350 178710 net.cpp:100] Creating Layer inception_5a/relu_3x3
I0208 04:47:28.674356 178710 net.cpp:434] inception_5a/relu_3x3 <- inception_5a/3x3
I0208 04:47:28.674365 178710 net.cpp:395] inception_5a/relu_3x3 -> inception_5a/3x3 (in-place)
I0208 04:47:28.674376 178710 net.cpp:150] Setting up inception_5a/relu_3x3
I0208 04:47:28.674382 178710 net.cpp:157] Top shape: 128 320 7 7 (2007040)
I0208 04:47:28.674386 178710 net.cpp:165] Memory required for data: 6928082952
I0208 04:47:28.674391 178710 layer_factory.hpp:77] Creating layer inception_5a/5x5_reduce
I0208 04:47:28.674410 178710 net.cpp:100] Creating Layer inception_5a/5x5_reduce
I0208 04:47:28.674417 178710 net.cpp:434] inception_5a/5x5_reduce <- pool4/3x3_s2_pool4/3x3_s2_0_split_2
I0208 04:47:28.674432 178710 net.cpp:408] inception_5a/5x5_reduce -> inception_5a/5x5_reduce
I0208 04:47:28.674800 178710 net.cpp:150] Setting up inception_5a/5x5_reduce
I0208 04:47:28.674810 178710 net.cpp:157] Top shape: 128 32 7 7 (200704)
I0208 04:47:28.674814 178710 net.cpp:165] Memory required for data: 6928885768
I0208 04:47:28.674823 178710 layer_factory.hpp:77] Creating layer inception_5a/relu_5x5_reduce
I0208 04:47:28.674852 178710 net.cpp:100] Creating Layer inception_5a/relu_5x5_reduce
I0208 04:47:28.674860 178710 net.cpp:434] inception_5a/relu_5x5_reduce <- inception_5a/5x5_reduce
I0208 04:47:28.674870 178710 net.cpp:395] inception_5a/relu_5x5_reduce -> inception_5a/5x5_reduce (in-place)
I0208 04:47:28.674878 178710 net.cpp:150] Setting up inception_5a/relu_5x5_reduce
I0208 04:47:28.674885 178710 net.cpp:157] Top shape: 128 32 7 7 (200704)
I0208 04:47:28.674890 178710 net.cpp:165] Memory required for data: 6929688584
I0208 04:47:28.674895 178710 layer_factory.hpp:77] Creating layer inception_5a/5x5
I0208 04:47:28.674912 178710 net.cpp:100] Creating Layer inception_5a/5x5
I0208 04:47:28.674918 178710 net.cpp:434] inception_5a/5x5 <- inception_5a/5x5_reduce
I0208 04:47:28.674932 178710 net.cpp:408] inception_5a/5x5 -> inception_5a/5x5
I0208 04:47:28.676021 178710 net.cpp:150] Setting up inception_5a/5x5
I0208 04:47:28.676031 178710 net.cpp:157] Top shape: 128 128 7 7 (802816)
I0208 04:47:28.676035 178710 net.cpp:165] Memory required for data: 6932899848
I0208 04:47:28.676045 178710 layer_factory.hpp:77] Creating layer inception_5a/relu_5x5
I0208 04:47:28.676076 178710 net.cpp:100] Creating Layer inception_5a/relu_5x5
I0208 04:47:28.676082 178710 net.cpp:434] inception_5a/relu_5x5 <- inception_5a/5x5
I0208 04:47:28.676091 178710 net.cpp:395] inception_5a/relu_5x5 -> inception_5a/5x5 (in-place)
I0208 04:47:28.676101 178710 net.cpp:150] Setting up inception_5a/relu_5x5
I0208 04:47:28.676108 178710 net.cpp:157] Top shape: 128 128 7 7 (802816)
I0208 04:47:28.676111 178710 net.cpp:165] Memory required for data: 6936111112
I0208 04:47:28.676116 178710 layer_factory.hpp:77] Creating layer inception_5a/pool
I0208 04:47:28.676125 178710 net.cpp:100] Creating Layer inception_5a/pool
I0208 04:47:28.676132 178710 net.cpp:434] inception_5a/pool <- pool4/3x3_s2_pool4/3x3_s2_0_split_3
I0208 04:47:28.676143 178710 net.cpp:408] inception_5a/pool -> inception_5a/pool
I0208 04:47:28.676159 178710 net.cpp:150] Setting up inception_5a/pool
I0208 04:47:28.676165 178710 net.cpp:157] Top shape: 128 832 7 7 (5218304)
I0208 04:47:28.676170 178710 net.cpp:165] Memory required for data: 6956984328
I0208 04:47:28.676175 178710 layer_factory.hpp:77] Creating layer inception_5a/pool_proj
I0208 04:47:28.676194 178710 net.cpp:100] Creating Layer inception_5a/pool_proj
I0208 04:47:28.676200 178710 net.cpp:434] inception_5a/pool_proj <- inception_5a/pool
I0208 04:47:28.676213 178710 net.cpp:408] inception_5a/pool_proj -> inception_5a/pool_proj
I0208 04:47:28.677932 178710 net.cpp:150] Setting up inception_5a/pool_proj
I0208 04:47:28.677945 178710 net.cpp:157] Top shape: 128 128 7 7 (802816)
I0208 04:47:28.677950 178710 net.cpp:165] Memory required for data: 6960195592
I0208 04:47:28.677959 178710 layer_factory.hpp:77] Creating layer inception_5a/relu_pool_proj
I0208 04:47:28.677987 178710 net.cpp:100] Creating Layer inception_5a/relu_pool_proj
I0208 04:47:28.677994 178710 net.cpp:434] inception_5a/relu_pool_proj <- inception_5a/pool_proj
I0208 04:47:28.678004 178710 net.cpp:395] inception_5a/relu_pool_proj -> inception_5a/pool_proj (in-place)
I0208 04:47:28.678014 178710 net.cpp:150] Setting up inception_5a/relu_pool_proj
I0208 04:47:28.678022 178710 net.cpp:157] Top shape: 128 128 7 7 (802816)
I0208 04:47:28.678027 178710 net.cpp:165] Memory required for data: 6963406856
I0208 04:47:28.678031 178710 layer_factory.hpp:77] Creating layer inception_5a/output
I0208 04:47:28.678038 178710 net.cpp:100] Creating Layer inception_5a/output
I0208 04:47:28.678045 178710 net.cpp:434] inception_5a/output <- inception_5a/1x1
I0208 04:47:28.678053 178710 net.cpp:434] inception_5a/output <- inception_5a/3x3
I0208 04:47:28.678058 178710 net.cpp:434] inception_5a/output <- inception_5a/5x5
I0208 04:47:28.678064 178710 net.cpp:434] inception_5a/output <- inception_5a/pool_proj
I0208 04:47:28.678071 178710 net.cpp:408] inception_5a/output -> inception_5a/output
I0208 04:47:28.678086 178710 net.cpp:150] Setting up inception_5a/output
I0208 04:47:28.678093 178710 net.cpp:157] Top shape: 128 832 7 7 (5218304)
I0208 04:47:28.678097 178710 net.cpp:165] Memory required for data: 6984280072
I0208 04:47:28.678100 178710 layer_factory.hpp:77] Creating layer inception_5a/output_inception_5a/output_0_split
I0208 04:47:28.678109 178710 net.cpp:100] Creating Layer inception_5a/output_inception_5a/output_0_split
I0208 04:47:28.678113 178710 net.cpp:434] inception_5a/output_inception_5a/output_0_split <- inception_5a/output
I0208 04:47:28.678123 178710 net.cpp:408] inception_5a/output_inception_5a/output_0_split -> inception_5a/output_inception_5a/output_0_split_0
I0208 04:47:28.678138 178710 net.cpp:408] inception_5a/output_inception_5a/output_0_split -> inception_5a/output_inception_5a/output_0_split_1
I0208 04:47:28.678148 178710 net.cpp:408] inception_5a/output_inception_5a/output_0_split -> inception_5a/output_inception_5a/output_0_split_2
I0208 04:47:28.678158 178710 net.cpp:408] inception_5a/output_inception_5a/output_0_split -> inception_5a/output_inception_5a/output_0_split_3
I0208 04:47:28.678174 178710 net.cpp:150] Setting up inception_5a/output_inception_5a/output_0_split
I0208 04:47:28.678184 178710 net.cpp:157] Top shape: 128 832 7 7 (5218304)
I0208 04:47:28.678190 178710 net.cpp:157] Top shape: 128 832 7 7 (5218304)
I0208 04:47:28.678195 178710 net.cpp:157] Top shape: 128 832 7 7 (5218304)
I0208 04:47:28.678200 178710 net.cpp:157] Top shape: 128 832 7 7 (5218304)
I0208 04:47:28.678205 178710 net.cpp:165] Memory required for data: 7067772936
I0208 04:47:28.678208 178710 layer_factory.hpp:77] Creating layer inception_5b/1x1
I0208 04:47:28.678231 178710 net.cpp:100] Creating Layer inception_5b/1x1
I0208 04:47:28.678238 178710 net.cpp:434] inception_5b/1x1 <- inception_5a/output_inception_5a/output_0_split_0
I0208 04:47:28.678252 178710 net.cpp:408] inception_5b/1x1 -> inception_5b/1x1
I0208 04:47:28.681200 178710 net.cpp:150] Setting up inception_5b/1x1
I0208 04:47:28.681211 178710 net.cpp:157] Top shape: 128 384 7 7 (2408448)
I0208 04:47:28.681216 178710 net.cpp:165] Memory required for data: 7077406728
I0208 04:47:28.681223 178710 layer_factory.hpp:77] Creating layer inception_5b/relu_1x1
I0208 04:47:28.681249 178710 net.cpp:100] Creating Layer inception_5b/relu_1x1
I0208 04:47:28.681257 178710 net.cpp:434] inception_5b/relu_1x1 <- inception_5b/1x1
I0208 04:47:28.681267 178710 net.cpp:395] inception_5b/relu_1x1 -> inception_5b/1x1 (in-place)
I0208 04:47:28.681278 178710 net.cpp:150] Setting up inception_5b/relu_1x1
I0208 04:47:28.681285 178710 net.cpp:157] Top shape: 128 384 7 7 (2408448)
I0208 04:47:28.681289 178710 net.cpp:165] Memory required for data: 7087040520
I0208 04:47:28.681294 178710 layer_factory.hpp:77] Creating layer inception_5b/3x3_reduce
I0208 04:47:28.681314 178710 net.cpp:100] Creating Layer inception_5b/3x3_reduce
I0208 04:47:28.681324 178710 net.cpp:434] inception_5b/3x3_reduce <- inception_5a/output_inception_5a/output_0_split_1
I0208 04:47:28.681334 178710 net.cpp:408] inception_5b/3x3_reduce -> inception_5b/3x3_reduce
I0208 04:47:28.683770 178710 net.cpp:150] Setting up inception_5b/3x3_reduce
I0208 04:47:28.683781 178710 net.cpp:157] Top shape: 128 192 7 7 (1204224)
I0208 04:47:28.683799 178710 net.cpp:165] Memory required for data: 7091857416
I0208 04:47:28.683807 178710 layer_factory.hpp:77] Creating layer inception_5b/relu_3x3_reduce
I0208 04:47:28.683816 178710 net.cpp:100] Creating Layer inception_5b/relu_3x3_reduce
I0208 04:47:28.683822 178710 net.cpp:434] inception_5b/relu_3x3_reduce <- inception_5b/3x3_reduce
I0208 04:47:28.683847 178710 net.cpp:395] inception_5b/relu_3x3_reduce -> inception_5b/3x3_reduce (in-place)
I0208 04:47:28.683858 178710 net.cpp:150] Setting up inception_5b/relu_3x3_reduce
I0208 04:47:28.683864 178710 net.cpp:157] Top shape: 128 192 7 7 (1204224)
I0208 04:47:28.683868 178710 net.cpp:165] Memory required for data: 7096674312
I0208 04:47:28.683873 178710 layer_factory.hpp:77] Creating layer inception_5b/3x3
I0208 04:47:28.683889 178710 net.cpp:100] Creating Layer inception_5b/3x3
I0208 04:47:28.683898 178710 net.cpp:434] inception_5b/3x3 <- inception_5b/3x3_reduce
I0208 04:47:28.683910 178710 net.cpp:408] inception_5b/3x3 -> inception_5b/3x3
I0208 04:47:28.691007 178710 net.cpp:150] Setting up inception_5b/3x3
I0208 04:47:28.691025 178710 net.cpp:157] Top shape: 128 384 7 7 (2408448)
I0208 04:47:28.691046 178710 net.cpp:165] Memory required for data: 7106308104
I0208 04:47:28.691068 178710 layer_factory.hpp:77] Creating layer inception_5b/relu_3x3
I0208 04:47:28.691078 178710 net.cpp:100] Creating Layer inception_5b/relu_3x3
I0208 04:47:28.691084 178710 net.cpp:434] inception_5b/relu_3x3 <- inception_5b/3x3
I0208 04:47:28.691109 178710 net.cpp:395] inception_5b/relu_3x3 -> inception_5b/3x3 (in-place)
I0208 04:47:28.691118 178710 net.cpp:150] Setting up inception_5b/relu_3x3
I0208 04:47:28.691133 178710 net.cpp:157] Top shape: 128 384 7 7 (2408448)
I0208 04:47:28.691138 178710 net.cpp:165] Memory required for data: 7115941896
I0208 04:47:28.691141 178710 layer_factory.hpp:77] Creating layer inception_5b/5x5_reduce
I0208 04:47:28.691160 178710 net.cpp:100] Creating Layer inception_5b/5x5_reduce
I0208 04:47:28.691169 178710 net.cpp:434] inception_5b/5x5_reduce <- inception_5a/output_inception_5a/output_0_split_2
I0208 04:47:28.691180 178710 net.cpp:408] inception_5b/5x5_reduce -> inception_5b/5x5_reduce
I0208 04:47:28.691659 178710 net.cpp:150] Setting up inception_5b/5x5_reduce
I0208 04:47:28.691669 178710 net.cpp:157] Top shape: 128 48 7 7 (301056)
I0208 04:47:28.691673 178710 net.cpp:165] Memory required for data: 7117146120
I0208 04:47:28.691696 178710 layer_factory.hpp:77] Creating layer inception_5b/relu_5x5_reduce
I0208 04:47:28.691705 178710 net.cpp:100] Creating Layer inception_5b/relu_5x5_reduce
I0208 04:47:28.691711 178710 net.cpp:434] inception_5b/relu_5x5_reduce <- inception_5b/5x5_reduce
I0208 04:47:28.691736 178710 net.cpp:395] inception_5b/relu_5x5_reduce -> inception_5b/5x5_reduce (in-place)
I0208 04:47:28.691746 178710 net.cpp:150] Setting up inception_5b/relu_5x5_reduce
I0208 04:47:28.691756 178710 net.cpp:157] Top shape: 128 48 7 7 (301056)
I0208 04:47:28.691761 178710 net.cpp:165] Memory required for data: 7118350344
I0208 04:47:28.691766 178710 layer_factory.hpp:77] Creating layer inception_5b/5x5
I0208 04:47:28.691794 178710 net.cpp:100] Creating Layer inception_5b/5x5
I0208 04:47:28.691802 178710 net.cpp:434] inception_5b/5x5 <- inception_5b/5x5_reduce
I0208 04:47:28.691817 178710 net.cpp:408] inception_5b/5x5 -> inception_5b/5x5
I0208 04:47:28.693315 178710 net.cpp:150] Setting up inception_5b/5x5
I0208 04:47:28.693322 178710 net.cpp:157] Top shape: 128 128 7 7 (802816)
I0208 04:47:28.693325 178710 net.cpp:165] Memory required for data: 7121561608
I0208 04:47:28.693331 178710 layer_factory.hpp:77] Creating layer inception_5b/relu_5x5
I0208 04:47:28.693341 178710 net.cpp:100] Creating Layer inception_5b/relu_5x5
I0208 04:47:28.693361 178710 net.cpp:434] inception_5b/relu_5x5 <- inception_5b/5x5
I0208 04:47:28.693366 178710 net.cpp:395] inception_5b/relu_5x5 -> inception_5b/5x5 (in-place)
I0208 04:47:28.693370 178710 net.cpp:150] Setting up inception_5b/relu_5x5
I0208 04:47:28.693373 178710 net.cpp:157] Top shape: 128 128 7 7 (802816)
I0208 04:47:28.693375 178710 net.cpp:165] Memory required for data: 7124772872
I0208 04:47:28.693377 178710 layer_factory.hpp:77] Creating layer inception_5b/pool
I0208 04:47:28.693385 178710 net.cpp:100] Creating Layer inception_5b/pool
I0208 04:47:28.693389 178710 net.cpp:434] inception_5b/pool <- inception_5a/output_inception_5a/output_0_split_3
I0208 04:47:28.693393 178710 net.cpp:408] inception_5b/pool -> inception_5b/pool
I0208 04:47:28.693404 178710 net.cpp:150] Setting up inception_5b/pool
I0208 04:47:28.693408 178710 net.cpp:157] Top shape: 128 832 7 7 (5218304)
I0208 04:47:28.693411 178710 net.cpp:165] Memory required for data: 7145646088
I0208 04:47:28.693413 178710 layer_factory.hpp:77] Creating layer inception_5b/pool_proj
I0208 04:47:28.693428 178710 net.cpp:100] Creating Layer inception_5b/pool_proj
I0208 04:47:28.693431 178710 net.cpp:434] inception_5b/pool_proj <- inception_5b/pool
I0208 04:47:28.693437 178710 net.cpp:408] inception_5b/pool_proj -> inception_5b/pool_proj
I0208 04:47:28.694128 178710 net.cpp:150] Setting up inception_5b/pool_proj
I0208 04:47:28.694134 178710 net.cpp:157] Top shape: 128 128 7 7 (802816)
I0208 04:47:28.694136 178710 net.cpp:165] Memory required for data: 7148857352
I0208 04:47:28.694156 178710 layer_factory.hpp:77] Creating layer inception_5b/relu_pool_proj
I0208 04:47:28.694164 178710 net.cpp:100] Creating Layer inception_5b/relu_pool_proj
I0208 04:47:28.694167 178710 net.cpp:434] inception_5b/relu_pool_proj <- inception_5b/pool_proj
I0208 04:47:28.694171 178710 net.cpp:395] inception_5b/relu_pool_proj -> inception_5b/pool_proj (in-place)
I0208 04:47:28.694176 178710 net.cpp:150] Setting up inception_5b/relu_pool_proj
I0208 04:47:28.694180 178710 net.cpp:157] Top shape: 128 128 7 7 (802816)
I0208 04:47:28.694181 178710 net.cpp:165] Memory required for data: 7152068616
I0208 04:47:28.694201 178710 layer_factory.hpp:77] Creating layer inception_5b/output
I0208 04:47:28.694207 178710 net.cpp:100] Creating Layer inception_5b/output
I0208 04:47:28.694211 178710 net.cpp:434] inception_5b/output <- inception_5b/1x1
I0208 04:47:28.694216 178710 net.cpp:434] inception_5b/output <- inception_5b/3x3
I0208 04:47:28.694218 178710 net.cpp:434] inception_5b/output <- inception_5b/5x5
I0208 04:47:28.694221 178710 net.cpp:434] inception_5b/output <- inception_5b/pool_proj
I0208 04:47:28.694226 178710 net.cpp:408] inception_5b/output -> inception_5b/output
I0208 04:47:28.694233 178710 net.cpp:150] Setting up inception_5b/output
I0208 04:47:28.694238 178710 net.cpp:157] Top shape: 128 1024 7 7 (6422528)
I0208 04:47:28.694241 178710 net.cpp:165] Memory required for data: 7177758728
I0208 04:47:28.694243 178710 layer_factory.hpp:77] Creating layer pool5/7x7_s1
I0208 04:47:28.694252 178710 net.cpp:100] Creating Layer pool5/7x7_s1
I0208 04:47:28.694257 178710 net.cpp:434] pool5/7x7_s1 <- inception_5b/output
I0208 04:47:28.694268 178710 net.cpp:408] pool5/7x7_s1 -> pool5/7x7_s1
I0208 04:47:28.694281 178710 net.cpp:150] Setting up pool5/7x7_s1
I0208 04:47:28.694289 178710 net.cpp:157] Top shape: 128 1024 1 1 (131072)
I0208 04:47:28.694293 178710 net.cpp:165] Memory required for data: 7178283016
I0208 04:47:28.694298 178710 layer_factory.hpp:77] Creating layer loss3/classifier
I0208 04:47:28.694311 178710 net.cpp:100] Creating Layer loss3/classifier
I0208 04:47:28.694319 178710 net.cpp:434] loss3/classifier <- pool5/7x7_s1
I0208 04:47:28.694330 178710 net.cpp:408] loss3/classifier -> loss3/classifier
I0208 04:47:28.704087 178710 net.cpp:150] Setting up loss3/classifier
I0208 04:47:28.704107 178710 net.cpp:157] Top shape: 128 1000 (128000)
I0208 04:47:28.704130 178710 net.cpp:165] Memory required for data: 7178795016
I0208 04:47:28.704141 178710 layer_factory.hpp:77] Creating layer loss3/loss3
I0208 04:47:28.704152 178710 net.cpp:100] Creating Layer loss3/loss3
I0208 04:47:28.704157 178710 net.cpp:434] loss3/loss3 <- loss3/classifier
I0208 04:47:28.704166 178710 net.cpp:434] loss3/loss3 <- label_data_1_split_2
I0208 04:47:28.704177 178710 net.cpp:408] loss3/loss3 -> loss3/loss3
…
